keras/models/cnn_model.pkl (torch, 37588 bytes, 10 tensors)

trunk.0.weight f4 [16, 1, 5, 5]
0	0xbe0be7a3	-0.13662581
1	0xbbb3a552	-0.005482354
2	0x3dd690e8	0.104768574
3	0xbc14d505	-0.009083991
4	0xbe5ad733	-0.21371154
5	0x3ca3f244	0.020012982
6	0xbd074dda	-0.03303323
7	0x3eb07a40	0.3446827
8	0x3e003d0f	0.12523292
9	0x3e4f8f97	0.20269619
10	0x3eac990b	0.33710513
11	0x3ef6d6f0	0.4821086
12	0x3e749394	0.23884422
13	0x3ecc669c	0.39922035
14	0x3df153d6	0.117835686
15	0x3ed9cd5d	0.42539492
16	0x3ecc2e1d	0.39878932
17	0x3f0c3bae	0.54778564
18	0x3ecf7fb9	0.40527132
19	0x3eb210f3	0.34778556
20	0x3ed3b546	0.41349238
21	0x3e8b53db	0.27212414
22	0x3e85e1c3	0.26148805
23	0x3eaa134d	0.3321785
24	0x3d44b136	0.048020564
25	0x3d922688	0.071362555
26	0x3d83d195	0.06436459
27	0xbd8ac1ed	-0.0677527
28	0x3ddf4526	0.10901861
29	0x3e669b31	0.22520138
30	0xbdb3e75e	-0.08784364
31	0x3e73bcaf	0.23802446
32	0x3e882fa4	0.26598847
33	0x3d8a7f30	0.0676254
34	0x3e86d476	0.2633397
35	0xbb9db33c	-0.004812626
36	0x3d873157	0.06601208
37	0x3e5e21f2	0.21692637
38	0x3efbb467	0.49161074
39	0x3e8517ed	0.25994816
40	0x3ea664fe	0.32498926
41	0x3d8f5172	0.06997956
42	0x3eb65859	0.3561428
43	0x3ec39ae6	0.38204116
44	0x3e4b74fc	0.19868845
45	0xbce70e6a	-0.028205115
46	0x3e0bb98b	0.13644998
47	0x3e9dafec	0.3079828
48	0x3e0fd45c	0.14045852
49	0x3e9fc1c8	0.3120253
50	0x3eba77f0	0.3641963
51	0x3f0cc339	0.54985386
52	0x3d3b3acd	0.045710374
53	0xbdcd8e99	-0.10036964
54	0xbf1dc5a1	-0.6162968
55	0x3eb30bc9	0.3496993
56	0x3dc95f0b	0.09832581
57	0xbdbe2acf	-0.09285509
58	0xbe8ad3b6	-0.27114648
59	0xbf110f68	-0.56664133
60	0x3ee112a6	0.4395954
61	0x3e811d87	0.2521784
62	0xbd233991	-0.03984982
63	0xbf0f58d9	-0.55994946
64	0xbeaeb5a8	-0.34122968
65	0x3ec3813d	0.38184538
66	0x3d98ea3b	0.07466551
67	0xbe916248	-0.28395295
68	0xbed2c111	-0.41162923
69	0xbe241d19	-0.16026725
70	0x3e6dd99a	0.2322754
71	0x3d45299a	0.048135377
72	0xbec5bf77	-0.3862264
73	0xbee5a286	-0.44850558
74	0xbe8511a9	-0.25990036
75	0xbec1b38e	-0.37832302
76	0xbe3702de	-0.17872187
77	0xbeb3368e	-0.3500256
78	0xbcbfc56f	-0.023409573
79	0x3d575214	0.05256851
80	0xbeb6de61	-0.35716537
81	0xbe7714d5	-0.2412904
82	0xbd989c31	-0.07451666
83	0x3e3ec9de	0.18631694
84	0xbdbe7196	-0.092990085
85	0x3db034a8	0.086037934
86	0x3e0234ce	0.12715456
87	0x3d5d153f	0.05397534
88	0x3eb6a079	0.35669306
89	0x3d61e5e8	0.055150896
90	0x3e3895cd	0.18025894
91	0x3e0c78d5	0.13717969
92	0x3ed682e6	0.41896743
93	0x3e93c288	0.28859353
94	0x3e63b026	0.22235164
95	0x3ebdc68b	0.3706554
96	0x3eb807c2	0.3594342
97	0x3e4b06ef	0.19826864
98	0x3f00902a	0.50219977
99	0x3f021fd4	0.50829816
100	0x3d9aa35d	0.0755069
101	0x3d8d1c9d	0.06890223
102	0x3ddb7ef9	0.107175775
103	0x3e80bacd	0.25142518
104	0x3eb2225a	0.34791833
105	0x3df9d85b	0.1219947
106	0x3d106b06	0.035258316
107	0x3eafe852	0.34356934
108	0x3edf8840	0.43658638
109	0x3f0f4521	0.5596486
110	0x3dc4d322	0.09610583
111	0xbcd15a7d	-0.025555843
112	0x3e97530a	0.2955554
113	0x3e334f64	0.17510754
114	0x3b867dbe	0.004104345
115	0xbdda5868	-0.106613934
116	0xbe69806f	-0.228029
117	0xbe58549b	-0.21126024
118	0xbd3ed693	-0.046591353
119	0xbdb89092	-0.090119496
120	0xbeb35d97	-0.3503234
121	0xbe61eeb2	-0.22063711
122	0xbec328e4	-0.38117135
123	0xbdea378a	-0.114363745
124	0xbdb70a54	-0.08937517
125	0x3eb1b982	0.34711844
126	0x3e5ee594	0.21767265
127	0x3ebc7ecb	0.36815485
128	0x3daadbc5	0.08342699
129	0xbde43bff	-0.11144256
130	0x3e233902	0.15939716
131	0x3da42a3f	0.0801587
132	0x3e9fd545	0.312174
133	0x3e1d8326	0.1538206
134	0xbea70956	-0.3262431
135	0x3eb65ec7	0.35619184
136	0x3dd1711a	0.102266505
137	0x3e2de128	0.16980422
138	0xbdf38355	-0.11890284
139	0xbecd0ede	-0.40050405
140	0x3e2acee7	0.1668049
141	0x3e9202de	0.28517812
142	0x3e02c393	0.12769918
143	0xbe12ff32	-0.14355162
144	0xbecda9af	-0.4016852
145	0x3ecb1e13	0.39671382
146	0x3e72cab1	0.23710133
147	0x3cb6c8cd	0.022312546
148	0xbe8712ef	-0.26381633
149	0xbea1a470	-0.31570768
150	0xbd5f7d95	-0.054563124
151	0x3de52e88	0.11190516
152	0x3e9a3355	0.30117288
153	0x3e9d56ab	0.30730185
154	0x3e4e73c7	0.20161353
155	0x3e4eabc5	0.20182712
156	0x3e5624ab	0.20912425
157	0x3e61961c	0.22029918
158	0x3e271d05	0.16319664
159	0x3e1ddb66	0.15415725
160	0x3d88c164	0.06677511
161	0x3e409df2	0.18810251
162	0x3edce407	0.4314272
163	0x3ed63e47	0.4184439
164	0x3dcf5e84	0.10125449
165	0x3e7290f3	0.23688106
166	0x3e9ec2a6	0.3100788
167	0x3eb6963d	0.35661498
168	0x3eacde49	0.3376334
169	0xbdc25d13	-0.09490409
170	0xbe191893	-0.1495078
171	0xbde0ca8c	-0.10976133
172	0xbded1016	-0.11575334
173	0x3cf5d477	0.030008538
174	0x3dbcec04	0.09224704
175	0x3af855d8	0.0018946482
176	0x3e4c2603	0.19936375
177	0x3e7544e1	0.23952056
178	0x3daa767c	0.0832338
179	0xbe0421a4	-0.12903458
180	0x3dc36144	0.09540036
181	0x3e746601	0.23867036
182	0x3e8ca614	0.27470458
183	0x3ec726e5	0.38896862
184	0xbc927a23	-0.017880505
185	0x3e4598b4	0.19296533
186	0x3ea7524c	0.32679975
187	0x3ef0cd04	0.47031415
188	0x3eb122ae	0.3459677
189	0xbe338db2	-0.17534521
190	0x3e55d93f	0.20883654
191	0x3ef4aff5	0.47790495
192	0x3e5cdc12	0.21568325
193	0x3e11986f	0.14218305
194	0xbe824adf	-0.25447747
195	0x3eb229e8	0.34797597
196	0x3e083ef7	0.13305269
197	0x3e1c14e5	0.15242346
198	0x3e0f0304	0.13965994
199	0xbe89afcf	-0.26891944
200	0xbe919ce0	-0.2844
201	0xbf39a199	-0.72512203
202	0xbeca809a	-0.3955124
203	0x3da001bb	0.0781283
204	0x3ed04757	0.40679428
205	0xbe4c6d8e	-0.19963667
206	0xbea5eeb7	-0.32408687
207	0xbe3bf99a	-0.18356934
208	0x3e8db34f	0.27675864
209	0x3e151eba	0.14562503
210	0xbf07b3ed	-0.5300892
211	0xbeb54408	-0.35403466
212	0xbdcfdacb	-0.10149153
213	0x3e738b4c	0.23783606
214	0x3ec18c99	0.3780258
215	0xbea6d1a3	-0.32581815
216	0xbe7777db	-0.24166815
217	0x3e5f243b	0.21791165
218	0x3e6d4445	0.23170574
219	0x3e99f59f	0.30070207
220	0xbefc6dc6	-0.493025
221	0xbd447d0b	-0.047970813
222	0x3e92008a	0.28516036
223	0x3e0bf6ce	0.13668367
224	0x3ea115e0	0.31462002
225	0x3ded9c7e	0.11602114
226	0x3e5b8785	0.21438415
227	0x3e73037e	0.23731801
228	0x3e5e1451	0.21687438
229	0x3e024a71	0.1272371
230	0x3d6699d2	0.05629904
231	0x3ecbe728	0.39824796
232	0x3ee0c274	0.43898356
233	0x3e2a22f7	0.166149
234	0x3e87bc8d	0.2651104
235	0x3e962f8d	0.29333153
236	0x3ea0361a	0.31291276
237	0x3d8fe339	0.07025761
238	0x3e3d8fb8	0.18511856
239	0xbda235aa	-0.07920392
240	0x3e3da3eb	0.18519561
241	0x3dabef7c	0.083952874
242	0x3da65223	0.08121135
243	0x3c9edc80	0.019392252
244	0xbc6b8425	-0.014374767
245	0x3e515b07	0.2044488
246	0xb9f4bfcf	-0.00046682215
247	0xbe00d563	-0.125814
248	0xbcfe61d5	-0.03105251
249	0xbe8d6d55	-0.27622476
250	0xbe02e6e5	-0.12783392
251	0x3dd7298b	0.105059706
252	0x3de603bf	0.11231183
253	0xbd549c92	-0.05190713
254	0x3e428250	0.18995023
255	0xbe319d75	-0.17345221

trunk.0.bias f4 [16]
0	0xbb2eb4ac	-0.0026657982
1	0x3d2fd917	0.042931642
2	0x3e4d2b78	0.20036113
3	0x3e8d8835	0.2764298
4	0x3d8dce8d	0.06924162
5	0xbe051a48	-0.12998307
6	0x3e22dff1	0.1590574
7	0xbd7e5beb	-0.06209938
8	0x3e6ab678	0.22921169
9	0x3e83d5e6	0.2574913
10	0xbacb7e38	-0.0015525287
11	0x3e0b2433	0.13588028
12	0x3e1654c5	0.14680775
13	0x3de59d80	0.11211681
14	0x3e5ab151	0.21356703
15	0x3e85947e	0.26089853

branch1.0.weight f4 [32, 16, 3, 3]
0	0x3bb235a6	0.0054385243
1	0xbd846fd6	-0.064666435
2	0xbe668fbe	-0.22515771
3	0x3e0544fe	0.130146
4	0x3e4cc642	0.19997504
5	0x3e020a00	0.12699127
6	0x3a8caf7a	0.0010733448
7	0x3bd03492	0.006353923
8	0xbce28b44	-0.027654298
9	0x3db28463	0.08716657
10	0xbdcbbddb	-0.099483214
11	0xbc6868eb	-0.014185171
12	0x3e5c95b7	0.21541487
13	0x3e7d2b84	0.24723631
14	0x3dcc95d9	0.09989519
15	0xbd8ce952	-0.0688044
16	0x3d8a16d5	0.06742636
17	0xbb4f1400	-0.0031597614
18	0x3e98143c	0.29702938
19	0x3e3da954	0.18521625
20	0x3d2e7e09	0.042600665
21	0xbd9dc520	-0.07703614
22	0xbdfc8884	-0.12330726
23	0xbe5be2d0	-0.21473241
24	0xbd984076	-0.0743417
25	0xbeb6b5a8	-0.35685468
26	0xbe3a813e	-0.18213364
27	0xbcf76405	-0.03019906
28	0x3d3e6fce	0.046493344
29	0xbcc2e141	-0.02378905
30	0x3e1b3e2c	0.15160435
31	0x3e26f53a	0.16304484
32	0x3eb94e6f	0.36192653
33	0x3c4a9618	0.012364887
34	0xbd5e2036	-0.054229937
35	0xbccfd21a	-0.025368739
36	0xbce914a7	-0.02845223
37	0xbe05ab96	-0.13053736
38	0x3e29d8c1	0.16586591
39	0x3df06630	0.11738241
40	0x3d58a429	0.05289093
41	0x3cfcdcda	0.030867029
42	0x3da9a948	0.08284241
43	0x3dfff4cd	0.12497864
44	0x3e20e0d1	0.1571076
45	0x3c6eee0b	0.014583121
46	0x3d9a0690	0.07520783
47	0xbdcb50f6	-0.099275514
48	0xbe153aa2	-0.14573148
49	0xbcf53d5f	-0.02993649
50	0xbe1a0b3b	-0.15043347
51	0xbdcdecce	-0.100549325
52	0xbd275f0f	-0.04086214
53	0xbd5120ef	-0.0510568
54	0xbd8a1c41	-0.0674367
55	0xbd79f9a6	-0.0610291
56	0xbdd1c3fa	-0.10242458
57	0x3e4800c5	0.19531544
58	0x3e1792f6	0.14802155
59	0x3cb0f43f	0.02160084
60	0x3dcb6d88	0.09933001
61	0x3d5cfbf0	0.053951204
62	0xb84887c4	-4.7810157e-05
63	0xbdd73d90	-0.10509789
64	0xbd6049de	-0.054757945
65	0xbe2e8de1	-0.1704631
66	0x3d0bdee9	0.03414813
67	0x3e302139	0.17200173
68	0xbd82745a	-0.063698485
69	0x3d2877dc	0.04112993
70	0x3dedcf98	0.11611861
71	0xbc047d4e	-0.008086516
72	0x3d4a5a20	0.049402356
73	0x3d8ecdfd	0.06972883
74	0x3e672efa	0.22576514
75	0x3d3877a2	0.045035966
76	0x3d4f3767	0.050589945
77	0xbdceb230	-0.1009258
78	0xbe60db45	-0.21958645
79	0xbea2572d	-0.31707135
80	0xbe99f4cb	-0.30069575
81	0x3bdfdbb2	0.0068316096
82	0x3d3a5bc1	0.04549766
83	0x3d89ea2b	0.06734117
84	0x3dd7b412	0.105323926
85	0x3e1a1499	0.1504692
86	0xbd9416ba	-0.07230897
87	0x3e20aad6	0.15690169
88	0x3e464e99	0.1936592
89	0x3db05dc6	0.08611636
90	0x3ce9f637	0.028559787
91	0xbca996ca	-0.020701785
92	0xbd34737b	-0.044055443
93	0x3e54ae81	0.20769693
94	0x3df6a7de	0.12043737
95	0xbc37032b	-0.011170189
96	0x3c2c1cd9	0.010504925
97	0xbca4613a	-0.020065892
98	0x3da9a5f6	0.08283608
99	0xbd3d3e19	-0.0462018
100	0xbe095fb0	-0.13415408
101	0xbe89f999	-0.2694824
102	0x3e3d675d	0.18496461
103	0x3edf5a0d	0.4362339
104	0x3ece9561	0.40348342
105	0xbe90ecaf	-0.28305575
106	0xbe42485a	-0.18972912
107	0xbb492ace	-0.003069568
108	0x3d5e5c2f	0.054287132
109	0xbdf6f5ee	-0.12058626
110	0xbe1ddc0c	-0.15415972
111	0x3e131811	0.1436465
112	0x3e4ede38	0.20201957
113	0x3d90e413	0.07074752
114	0x3b6198af	0.0034423282
115	0x3d073ca9	0.033016834
116	0x3e04dc0f	0.1297457
117	0xbd4e9ea4	-0.05044426
118	0xbe0011f2	-0.12506846
119	0x3e441c75	0.1915148
120	0x3d624072	0.05523724
121	0x3d8cad5f	0.068690054
122	0xbcb85d35	-0.022505382
123	0x3e3577a3	0.17721419
124	0x3e583532	0.21114042
125	0x3eac08c6	0.33600444
126	0x3dd7d417	0.105385
127	0x3e040724	0.12893349
128	0x3ded4ae0	0.11586547
129	0x3c8bd5a2	0.017069642
130	0x3d4ea1e4	0.05044736
131	0xbb6d8703	-0.0036243803
132	0x3dd32529	0.10309822
133	0x3c95c075	0.018280247
134	0x3df5a5b2	0.119944945
135	0x3e290d94	0.16509086
136	0x3e2d6837	0.16934286
137	0x3da47386	0.08029847
138	0xbd1f5c30	-0.038906276
139	0xbd16e580	-0.036839962
140	0xbd9040d5	-0.07043616
141	0x3e51daa5	0.20493563
142	0x3e196197	0.14978634
143	0x3e1ca29b	0.15296404
144	0x3e08b70f	0.13351081
145	0x3e07498a	0.13211647
146	0x3d285d01	0.04110432
147	0x3cc270b2	0.023735378
148	0xbeccf6f1	-0.4003215
149	0xbe558ea1	-0.2085519
150	0x3e82165a	0.25407678
151	0xbe01d12a	-0.12677446
152	0x3de51ba5	0.111869134
153	0x3d45e7a5	0.048316617
154	0x3e0fa216	0.14026675
155	0x3df93e19	0.12170047
156	0xbc056d4e	-0.008143736
157	0xbe65e86e	-0.22451946
158	0x3d17752f	0.03697699
159	0x3d8292e0	0.063756704
160	0xbd1c4202	-0.038148887
161	0x3de8ac6b	0.11361011
162	0xbe5c7290	-0.21528077
163	0x3b57a8f4	0.00329071
164	0x3e27ee3d	0.16399474
165	0x3d615e42	0.055021532
166	0x3e40ad98	0.18816221
167	0x3d41a1ee	0.04727357
168	0x3e24f063	0.16107325
169	0x3e3c302a	0.18377748
170	0x3e754448	0.23951828
171	0x3e0aa6f3	0.13540249
172	0x3dbda27f	0.09259509
173	0x3d78b820	0.06072247
174	0xbd32eec7	-0.043684747
175	0xbec1e5f6	-0.3787076
176	0xbd096e52	-0.033552475
177	0x3df315a1	0.1186936
178	0xbd09e01a	-0.033660986
179	0x3ea3ea3e	0.3201465
180	0x3e0e7df8	0.13915241
181	0x3e01ea5e	0.1268706
182	0xbd2290ab	-0.039688747
183	0x3d1c194e	0.03811007
184	0xbd5c535b	-0.05379043
185	0x3d581a36	0.05275937
186	0xbd9d4168	-0.07678491
187	0xbe895c94	-0.26828444
188	0x3de7f6e7	0.1132639
189	0xbde2642e	-0.11054264
190	0x3de52fd1	0.11190761
191	0x3e26a1cf	0.16272663
192	0x3e35b24a	0.17743793
193	0x3b1b5a33	0.0023704886
194	0x3b6b7125	0.0035925594
195	0x3e475d36	0.19469151
196	0xbe205b29	-0.15659775
197	0x3e5a496b	0.21317069
198	0xbcad3021	-0.021141114
199	0x3e40e34f	0.18836711
200	0x3db4a304	0.08820155
201	0xbd5c54b1	-0.053791706
202	0xbe54babb	-0.20774357
203	0xbd109ee1	-0.03530777
204	0x3e33b351	0.17548873
205	0xbe1d0a55	-0.15335973
206	0x3e034217	0.1281818
207	0x3db222a5	0.08698014
208	0x3e3cab35	0.18424685
209	0x3d7ae2df	0.061251517
210	0x3d7219a7	0.059106495
211	0xbe6955eb	-0.22786681
212	0xbdd5d6d7	-0.10441368
213	0x3e52d765	0.20589979
214	0xbe44e7de	-0.19229075
215	0x3dd690eb	0.1047686
216	0x3db0d018	0.08633441
217	0x3d5309ec	0.051523134
218	0xbdb081e7	-0.08618527
219	0xbd20f73c	-0.03929828
220	0xbd019540	-0.031636477
221	0x3e6fee73	0.23430805
222	0x3e30a73a	0.17251292
223	0x3e2ef2a8	0.17084754
224	0x3ed299a5	0.41132846
225	0x3d1b9bae	0.037990265
226	0x3e115157	0.14191185
227	0x3e31637c	0.17323107
228	0x3cd32f95	0.025779525
229	0xbdfb5582	-0.12272169
230	0xbe1a8433	-0.15089492
231	0x3c947964	0.01812429
232	0xbe63e639	-0.22255792
233	0x3c5a3c52	0.013320046
234	0x3d22036f	0.039554056
235	0x3e2f2939	0.17105569
236	0x3dd0cb4f	0.10195028
237	0xbdb4ca8a	-0.08827694
238	0xbea8e9b9	-0.32990816
239	0xbc8c35e2	-0.017115537
240	0x3de69d76	0.11260502
241	0xbde62993	-0.112383984
242	0x3e46b6b4	0.19405633
243	0x3dc1446a	0.09436877
244	0x3c928a95	0.017888347
245	0xbd385d18	-0.045010656
246	0xbe0a093f	-0.1348009
247	0xbf0e2105	-0.55519134
248	0xbd621385	-0.055194397
249	0x3e2dbeae	0.1696727
250	0x3d8eeeb7	0.06979125
251	0x3dc3ae5b	0.0955474
252	0xbccad659	-0.024760412
253	0x3e3076d0	0.17232823
254	0x3e0c1c13	0.13682584
255	0xbdca486b	-0.09877094

branch1.0.bias f4 [32]
0	0x3e7b8768	0.24563372
1	0xbcc339ef	-0.023831336
2	0x3e196861	0.14981224
3	0x3dca30cf	0.09872591
4	0x3e19ca16	0.15018496
5	0x3d163f3b	0.036681395
6	0xbdcd4ae1	-0.10024048
7	0x3ccba832	0.024860475
8	0x3d1eced2	0.038771458
9	0x3e12406e	0.1428239
10	0xbdc85883	-0.09782507
11	0x3e49e7b0	0.19717288
12	0x3dacc626	0.08436231
13	0xbd8eb7b1	-0.0696863
14	0x3be3237b	0.00693172
15	0x3d012eb2	0.031538673
16	0xbd8f0490	-0.06983292
17	0x3e116a72	0.14200762
18	0x3e4a2d25	0.19743784
19	0x3e4d5dcb	0.2005531
20	0xbdc50360	-0.09619784
21	0xbdc94ea6	-0.09829454
22	0xbd1b7dbd	-0.03796171
23	0x3e3b47dc	0.18289131
24	0xbdbf06db	-0.093274795
25	0x3cf76e31	0.03020391
26	0x3d8fb85a	0.07017584
27	0x3d5dc5e7	0.054143813
28	0x3c3ccebd	0.0115239
29	0xbd3541a8	-0.044252068
30	0x3d5733a4	0.052539483
31	0x3ce01316	0.02735285

branch2.0.weight f4 [8, 16, 1, 1]
0	0x3d982175	0.074282564
1	0x3bee64cd	0.0072752
2	0x3e82d5c9	0.2555373
3	0xbe3551ef	-0.17707036
4	0xbdcbbce8	-0.099481404
5	0x3e319888	0.17343342
6	0x3e96ed91	0.29478124
7	0x3e801357	0.25014755
8	0xbd80c858	-0.062882125
9	0x3e69165a	0.22762433
10	0xbe73375c	-0.23751587
11	0xbe2bbe12	-0.16771725
12	0x3e61f796	0.22067103
13	0xbe6b6581	-0.2298794
14	0x3e460a99	0.1933998
15	0x3e35de2a	0.1776053
16	0xbe00e04b	-0.12585561
17	0x3e946caf	0.2898917
18	0xbe108606	-0.14113626
19	0xbd5ddd70	-0.054166257
20	0x3c6f0791	0.014589206
21	0x3dc872d1	0.097875245
22	0x3e0ec35b	0.1394171
23	0xbdbcac51	-0.09212554
24	0xbec03c79	-0.37546137
25	0xbc0099e6	-0.007849192
26	0x3c984c2e	0.018591013
27	0x3eac33bb	0.33633217
28	0x3ecc8e07	0.39952108
29	0x3ead5501	0.33853915
30	0xbe68d13f	-0.22736071
31	0x3da925a8	0.082591355
32	0x3ea5f1a9	0.32410935
33	0x3bc3d5a8	0.0059763975
34	0xbeb5c471	-0.35501435
35	0x3eb1c129	0.34717682
36	0x3c871df5	0.016493777
37	0xbe417a49	-0.18894304
38	0xbbe7a036	-0.007068659
39	0x3e96cc45	0.2945272
40	0xbd3c978a	-0.046042956
41	0x3ea9de63	0.3317748
42	0x3e2cf8c3	0.1689177
43	0x3ec30931	0.3809295
44	0x3e0de35b	0.1385626
45	0xbcd44e40	-0.025916219
46	0x3dfeed01	0.12447549
47	0x3d1b894e	0.03797274
48	0x3df7ebdd	0.12105534
49	0xbe59fcc4	-0.21287829
50	0xbe771fa6	-0.24133167
51	0x3e4cf237	0.20014273
52	0x3e0c8783	0.13723569
53	0xbe36cbba	-0.17851153
54	0xbe0b6e65	-0.13616331
55	0xbe098fdc	-0.13433784
56	0xbc506d83	-0.012721422
57	0xbe8d11e4	-0.27552712
58	0xbded74f4	-0.11594573
59	0xbd4ebd4d	-0.0504735
60	0xbc26cbc7	-0.01018042
61	0x3e12625b	0.14295332
62	0xbe815f0c	-0.25267828
63	0xbe0a7863	-0.13522486
64	0x3e0cf0e8	0.13763773
65	0x3ec76992	0.3894773
66	0xbeeaf696	-0.45891255
67	0x3e5d2fa3	0.21600203
68	0x3e4b6d7a	0.1986598
69	0x3be46ef7	0.006971236
70	0x3dd0c559	0.10193891
71	0xbda63c7d	-0.08117006
72	0x3cf43bb1	0.02981362
73	0x3e81f460	0.25381756
74	0xbd97aea1	-0.07406355
75	0x3e7949d7	0.24344574
76	0x3e605fd8	0.21911561
77	0x3d8845e1	0.06653953
78	0x3d5575d4	0.052114323
79	0x3de6eed3	0.11276021
80	0x3ef643cc	0.480986
81	0x3e19b481	0.15010263
82	0xbee303dd	-0.44338885
83	0x3f03c406	0.51470983
84	0xbd73e40c	-0.059543654
85	0xbe8f2d05	-0.27964035
86	0x3e0d0071	0.137697
87	0xbd16ed5a	-0.03684745
88	0x3e47aaa4	0.19498688
89	0x3e908ec7	0.2823393
90	0x3db2ddcf	0.08733713
91	0x3edae995	0.42756334
92	0x3da60c26	0.08107786
93	0xbb95f6b2	-0.0045765275
94	0xbcac4c19	-0.02103238
95	0xbcef12a4	-0.029183693
96	0xbe7f9838	-0.2496041
97	0xbd30fb1e	-0.043208234
98	0xbdf74a3d	-0.12074707
99	0x3e0866b6	0.13320431
100	0xbe5b04ee	-0.213886
101	0xbdbf4798	-0.09339827
102	0xbbddee6d	-0.0067728073
103	0x3dd802db	0.1054742
104	0x3e580436	0.21095356
105	0x3d83cae3	0.06435182
106	0xbe37faac	-0.17966717
107	0xbd60cc65	-0.054882426
108	0x3ce947ac	0.028476559
109	0xbd9a5f96	-0.07537763
110	0xbe48d7cc	-0.1961357
111	0xbe7ed5e6	-0.24886283
112	0xbc9a2219	-0.018815087
113	0x3e1d583a	0.15365687
114	0xbd823cd3	-0.063592575
115	0xbe8fb676	-0.28068894
116	0xbd1c4418	-0.038150877
117	0xbe948be3	-0.29012975
118	0x3eb86527	0.36014673
119	0x3df1d136	0.11807482
120	0x3ba3577a	0.0049847933
121	0x3d80ecb0	0.062951446
122	0xbe00784d	-0.12545891
123	0xbe30f49f	-0.17280816
124	0x3e9abc49	0.30221775
125	0x3ee35786	0.44402713
126	0x3e34221d	0.17591138
127	0x3e4a519f	0.19757698

branch2.0.bias f4 [8]
0	0xbdb1a248	-0.08673531
1	0x3e804b03	0.2505723
2	0x3cf614ca	0.03003921
3	0xbe2b59f4	-0.16733533
4	0x3e017dc3	0.1264563
5	0x3da54604	0.08069995
6	0xbe2f1c14	-0.17100555
7	0xbda500e3	-0.0805681

head.0.weight f4 [8, 40, 1, 1]
0	0xbc5ed2d0	-0.013600066
1	0xbdb66a26	-0.08906965
2	0xbd19fb02	-0.037592895
3	0x3e0b363b	0.13594906
4	0xbd5d8a0d	-0.054086734
5	0x3d694200	0.056947708
6	0xbba2b4e7	-0.004965413
7	0xbe09881c	-0.13430828
8	0xbdd0978d	-0.10185156
9	0x3cde9089	0.02716853
10	0xbd8cfbef	-0.0688399
11	0x3dcd02fa	0.10010333
12	0xbdb65171	-0.089022525
13	0x3da64d6d	0.081202365
14	0xbe1a33f9	-0.15058888
15	0xbe1c3c16	-0.15257296
16	0xbbfefe95	-0.0077818134
17	0xbcba3152	-0.022728596
18	0x3da4627c	0.08026597
19	0xbe1602c7	-0.14649497
20	0xbc4e02af	-0.012573882
21	0x3df6d953	0.1205317
22	0xbe0050f6	-0.12530884
23	0x3d034395	0.032046873
24	0x3d1c658c	0.03818278
25	0xbd8e70ed	-0.06955133
26	0xbcbff700	-0.023433208
27	0x3da876b5	0.082257666
28	0x3cf6a5bc	0.030108325
29	0x3da6b2d4	0.081395775
30	0x3df6808a	0.12036236
31	0xbe0a3da0	-0.1350007
32	0xbe29abf7	-0.16569506
33	0xbdf55d84	-0.11980727
34	0xbe2cbcbd	-0.16868873
35	0x3c90c7d5	0.017673412
36	0xbde593d3	-0.11209836
37	0xbe0a6aa1	-0.13517238
38	0xbe0bc4ac	-0.13649243
39	0x3e056c88	0.13029683
40	0xbeb13800	-0.34613037
41	0x3e9d3665	0.30705562
42	0xbd27f1e7	-0.04100218
43	0xbe96669d	-0.29375163
44	0x3d43f19b	0.047837835
45	0xbe326017	-0.17419468
46	0x3ed39871	0.4132724
47	0x3e47e580	0.19521141
48	0x3e7e5295	0.2483619
49	0x3ec33379	0.38125208
50	0xbd44f92b	-0.048089188
51	0xbd523e4d	-0.051328946
52	0x3e80cc09	0.25155666
53	0x3e10ffed	0.14160128
54	0x3e50bf53	0.20385484
55	0x3e4eae49	0.20183672
56	0xbdc9e761	-0.09858585
57	0x3ec608d8	0.38678622
58	0x3e84a856	0.2590968
59	0xbef4bf2c	-0.47802103
60	0xbe09940e	-0.13435385
61	0xbd99e2ba	-0.07513948
62	0x3e3b9f15	0.18322404
63	0xbe937c90	-0.2880597
64	0xbe27df83	-0.16393857
65	0x3e6b4293	0.22974615
66	0x3df4f209	0.11960227
67	0x3e653f9f	0.22387551
68	0x3e6b5ae9	0.22983898
69	0xbbe6dd29	-0.0070454073
70	0x3e293652	0.16524628
71	0x3ec97f17	0.39354774
72	0xbe0fd784	-0.14047056
73	0x3d82849b	0.06372949
74	0xbea67422	-0.32510477
75	0x3d6dc43e	0.05804848
76	0xbd00eb23	-0.031474244
77	0xbe8d6fa7	-0.27624246
78	0xbda6a240	-0.081364155
79	0x3e3ef9b4	0.18649942
80	0xbd53a3b3	-0.051669788
81	0xbd8f3ef2	-0.06994428
82	0xbe0b1f93	-0.13586263
83	0xbea4c779	-0.32183436
84	0x3e812cad	0.25229397
85	0x3e7763e9	0.24159206
86	0xbc057b07	-0.008147008
87	0x3e149ffb	0.14514153
88	0x3e097234	0.13422471
89	0xbe6806d9	-0.22658862
90	0xbd6173ce	-0.05504208
91	0x3e9209b3	0.28523025
92	0xbd109845	-0.035301466
93	0xbdfcb681	-0.12339497
94	0x3e2f31f3	0.17108898
95	0xbde16666	-0.11005859
96	0xbdcbe7d5	-0.09956328
97	0x3e87defe	0.26537317
98	0xbe1a9c2f	-0.15098642
99	0xbeb0b9b3	-0.34516677
100	0xbe7f9a88	-0.24961293
101	0xbe169b1f	-0.14707612
102	0x3dc1e9d0	0.09468424
103	0xbea56974	-0.32307017
104	0x3e117d85	0.14208038
105	0x3e94ca63	0.2906066
106	0xbe59445c	-0.21217483
107	0x3e98eeba	0.29869634
108	0x3e8d45f3	0.2759243
109	0xbe8453cb	-0.2584518
110	0x3c9e9f35	0.019363025
111	0x3e0f95cc	0.14021987
112	0xbe490e30	-0.19634318
113	0xbe3bd7ab	-0.1834399
114	0x3dc49e5e	0.09600519
115	0x3ca77f0b	0.020446321
116	0xbd378c09	-0.044811282
117	0x3e01bb27	0.12669049
118	0x3e071ed9	0.13195361
119	0xbdd34ab7	-0.10316985
120	0x3e3a57d4	0.18197566
121	0x3d242737	0.04007646
122	0x3ea79407	0.32730123
123	0x3eadbf73	0.33935127
124	0x3e042c6e	0.12907574
125	0xbe16c6ee	-0.14724323
126	0x3e2a99c6	0.16660222
127	0xbe03d47b	-0.12874024
128	0xbe7a38c1	-0.24435712
129	0x3e018dc1	0.12651731
130	0xbc7e959c	-0.015538599
131	0x3d5cf44b	0.053943913
132	0x3e8aafd9	0.27087286
133	0xbe189df1	-0.14904
134	0xbea82760	-0.3284254
135	0xbdfda596	-0.12385099
136	0x3ce2dee5	0.027694175
137	0x3dd244fe	0.102670655
138	0x3e246f1c	0.1605801
139	0x3de95962	0.113940015
140	0x3ce7aa15	0.028279344
141	0xbe0c6c2d	-0.13713141
142	0xbe9913ac	-0.2989782
143	0x3e41bfb0	0.18920779
144	0xbefe2dc7	-0.496443
145	0xbdb5d291	-0.08878053
146	0xbe018cd7	-0.12651382
147	0xbea25198	-0.31702876
148	0xbe88dc74	-0.26730692
149	0xbe05eedf	-0.13079403
150	0x3d315288	0.0432916
151	0x3d83d7b1	0.06437624
152	0x3e3340d8	0.17505205
153	0x3e52f373	0.20600681
154	0x3e063d70	0.13109374
155	0x3dab37e6	0.08360271
156	0x3d16ef85	0.036849517
157	0x3e2ee675	0.170801
158	0x3e06b718	0.13155782
159	0x3e16fca5	0.14744814
160	0x3e5a8b0b	0.21342103
161	0xbe7ca5c7	-0.24672614
162	0x3e12e138	0.14343727
163	0x3e9a66a2	0.30156428
164	0x3e76c0ac	0.24096936
165	0xbe9aa66d	-0.30205098
166	0xbe5971c8	-0.2123481
167	0x3d15b5f0	0.036550462
168	0xbe8a7f87	-0.2705042
169	0x3c61f863	0.01379213
170	0xbcd399b3	-0.025830125
171	0x3e72f133	0.23724823
172	0x3e011447	0.12605391
173	0x3d1641b7	0.036683764
174	0xbbbb12fa	-0.0057090493
175	0xbe841103	-0.2579423
176	0x3d0ab7d8	0.033866733
177	0xbdcb0b7a	-0.09914298
178	0xbbeeae76	-0.007283981
179	0x3df9b08c	0.12191877
180	0x3d1e06fd	0.038580883
181	0x3d83ddc0	0.0643878
182	0xbcd51b12	-0.026013885
183	0x3e7417b9	0.23837174
184	0xbe688301	-0.22706224
185	0xbdb4ca57	-0.08827656
186	0xbe83de42	-0.25755507
187	0xbe0006f5	-0.12502654
188	0xbe6863e4	-0.22694355
189	0x3dd6a7c4	0.104812175
190	0x3ddc4321	0.10754991
191	0xbe0e4fa8	-0.13897574
192	0x3dec1cd1	0.11528934
193	0x3e8c3d2a	0.27390414
194	0x3e12e3ad	0.14344664
195	0x3e1245c3	0.14284424
196	0x3e8a8d4b	0.27060923
197	0x3d3c0960	0.04590738
198	0x3d2cc206	0.042177223
199	0x3e0ea7a1	0.13931133
200	0x3e545e5b	0.20739119
201	0xbe8e29a7	-0.27766153
202	0x3db2ec32	0.08736457
203	0x39c34a28	0.0003724855
204	0x3da427e1	0.08015419
205	0x3e057dd0	0.13036275
206	0xbdf5da89	-0.12004573
207	0xbe82c820	-0.25543308
208	0x3cad17e0	0.021129549
209	0x3dfda700	0.12385368
210	0xbd87f7e4	-0.06639078
211	0x3d264e32	0.040601917
212	0xbcdaabb0	-0.026693195
213	0x3de2df9e	0.11077808
214	0x38741d26	5.820128e-05
215	0xbe60461c	-0.21901745
216	0x3c8fd603	0.017558103
217	0x3d2d6298	0.042330354
218	0x3d90efb6	0.07076971
219	0x3e772ccc	0.24138182
220	0xbd2179ce	-0.039422803
221	0xbc846cfe	-0.016165253
222	0xbe5b9599	-0.21443786
223	0x3e8186f8	0.25298285
224	0xbe324610	-0.17409539
225	0xbe1df4e9	-0.15425457
226	0x3e03aaa9	0.1285807
227	0xbd7ce427	-0.06174102
228	0xbe5006d7	-0.20315109
229	0xbecee863	-0.40411672
230	0x3d4985a7	0.049199726
231	0xbe1fe78f	-0.15615676
232	0xbe1dcae1	-0.15409423
233	0x3e48c6b2	0.19607046
234	0x3e416fac	0.18890256
235	0xbdae9817	-0.085251026
236	0x3dde1a89	0.10844905
237	0x3e96203f	0.29321477
238	0xbd8614e6	-0.06546955
239	0xbda4d0cc	-0.08047637
240	0xbc167ca7	-0.009184993
241	0xbe874ac4	-0.2642423
242	0x3e56855b	0.20949309
243	0xbe94aeda	-0.2903965
244	0xbdbde24d	-0.09271679
245	0x3eb4685e	0.35235876
246	0xbc87f6b2	-0.016597126
247	0x3eaf4921	0.3423548
248	0x3e7bd5e8	0.24593318
249	0xbe395ae8	-0.18101084
250	0xbdbe6277	-0.092961244
251	0x3e7bf3f4	0.2460478
252	0xbe9eca7d	-0.3101386
253	0xbcb375c3	-0.02190674
254	0x3ecdd4c0	0.40201378
255	0xbb8678a2	-0.004103736

head.0.bias f4 [8]
0	0xbdb3b296	-0.08774297
1	0x3d5cc5ae	0.05389946
2	0x3e22861f	0.15871476
3	0x3e1dc7f1	0.15408303
4	0x3dc05d23	0.093927644
5	0x3db1ba3e	0.08678101
6	0x3d5c6de2	0.05381573
7	0x3dff5b11	0.124685414

classifier.1.weight f4 [10, 288]
0	0x3c54b881	0.012983442
1	0xbc6f8e48	-0.014621325
2	0xbcd36300	-0.025804043
3	0xbd30433d	-0.043032873
4	0x3cf019dc	0.029309206
5	0x3d2c7fa4	0.042113915
6	0x3d3f0a68	0.046640784
7	0x3cda30c0	0.026634574
8	0xbd68b3d7	-0.056812134
9	0xbd009737	-0.03139421
10	0x3d007f8d	0.031371642
11	0xbc685d90	-0.014182463
12	0xbd111550	-0.035420716
13	0x3c8916a7	0.016734434
14	0xbc0c74e9	-0.008572795
15	0xbc25c50b	-0.0101177795
16	0x3bae0e83	0.0053117885
17	0xbbc1f164	-0.0059186686
18	0x3d56de36	0.05245801
19	0x3c7e171b	0.015508438
20	0xbd1f16ec	-0.03884022
21	0x3cf53451	0.029932173
22	0xbcdd7a88	-0.027035967
23	0x3d265224	0.04060568
24	0xbbada061	-0.0052986597
25	0xbba12314	-0.0049175117
26	0x3c755a87	0.014975197
27	0xbb9b245d	-0.0047345595
28	0xbcc5df46	-0.024154317
29	0x3c88c242	0.016694192
30	0x3d54c3a8	0.051944405
31	0x3d5022f5	0.050814588
32	0xbd5dba4a	-0.054132737
33	0xbc58877c	-0.013215896
34	0x3c6845e8	0.014176823
35	0x3d691dbe	0.05691313
36	0xbd1ce1d0	-0.03830129
37	0xbd650dde	-0.055921428
38	0xbd3bd303	-0.045855533
39	0x3da73d86	0.081660315
40	0xbda6d078	-0.08145231
41	0xbe85660d	-0.2605442
42	0x3cc0d775	0.023540238
43	0x3d83f40c	0.064430326
44	0x3c832bb9	0.01601206
45	0x3d897a8f	0.06712829
46	0x3c9c0f5a	0.019050289
47	0xbf0336a7	-0.5125527
48	0x3d737a9c	0.0594431
49	0x3c0a3dba	0.008437568
50	0xbce300bd	-0.027710313
51	0x3c7e0df0	0.015506253
52	0x3da8c46c	0.082405895
53	0xbe9bfe4b	-0.30467448
54	0x3dd39285	0.10330681
55	0x3d69dc40	0.057094812
56	0xbe58a2b5	-0.21155818
57	0x3cee4472	0.029085372
58	0x3d7ae994	0.061257914
59	0xbd69247d	-0.056919564
60	0x3d385bc7	0.0450094
61	0x3d8ea786	0.06965546
62	0xbe644412	-0.22291592
63	0xbd79b97f	-0.06096792
64	0x3d50fb40	0.05102086
65	0x3da76f9d	0.081755854
66	0x3d49a1c9	0.049226556
67	0x3e008f21	0.125546
68	0xbcd7835f	-0.02630776
69	0x3c22b485	0.0099307345
70	0x3a1cc1be	0.00059797976
71	0x3d363775	0.04448648
72	0x3ca72798	0.020404622
73	0x3c20e266	0.009819603
74	0x3bd3b723	0.0064610406
75	0xbdf109a6	-0.117694184
76	0xbcae0b32	-0.021245573
77	0xbe85ab77	-0.2610738
78	0x3bb10eda	0.005403382
79	0xbb96468a	-0.0045860456
80	0x3d2de31f	0.042452928
81	0x3d31f72a	0.043448605
82	0x3cbd6ed4	0.023124136
83	0xbe64e91e	-0.22354552
84	0xbb50cf45	-0.0031861824
85	0x3d31b2c4	0.043383375
86	0x3d584a03	0.052804958
87	0xbc9ea346	-0.019364964
88	0x3d36a8f3	0.044594716
89	0xbd369922	-0.044579633
90	0x3c078dc6	0.0082735475
91	0x3ce7cf43	0.028297072
92	0xbe379c67	-0.17930757
93	0xbd015f75	-0.031585176
94	0x3d93b6a3	0.072125696
95	0x3cf56d87	0.029959453
96	0xbb227b37	-0.002479268
97	0xbc2895a5	-0.010289584
98	0xbe0d241f	-0.1378331
99	0x3d8fdb3d	0.07024238
100	0xbd45f782	-0.048331745
101	0x3d0a5799	0.033774946
102	0x3da4edf1	0.08053196
103	0x3d87f2af	0.06638085
104	0xbd244121	-0.040101174
105	0xba039ef2	-0.0005020938
106	0xbdb97ff8	-0.09057611
107	0x3ccad38a	0.024759073
108	0xbd0ca1c9	-0.034333978
109	0xbd338118	-0.043824285
110	0xbd02a7f2	-0.031898446
111	0x3d444eb6	0.047926627
112	0xbc350f63	-0.011051032
113	0x3c4ac3e3	0.012375805
114	0xbdbf6dac	-0.0934709
115	0xbd7f1b96	-0.062282167
116	0xbd1d31cf	-0.03837758
117	0x3d95b505	0.07309917
118	0x3d8343c4	0.0640941
119	0x3dbe2611	0.09284604
120	0xbd5fcafb	-0.054636937
121	0xbd9bed4c	-0.0761362
122	0xbccaa6f9	-0.024737822
123	0xbc10a108	-0.008827455
124	0xbd91432c	-0.0709289
125	0x3d558aca	0.052134313
126	0xbdb9031a	-0.09033795
127	0x3cbb322f	0.022851078
128	0x3dfef96b	0.124499165
129	0xbe01c349	-0.12672152
130	0xbdf4c6a6	-0.11951952
131	0x3d77f9fa	0.06054113
132	0xbe499c7a	-0.19688597
133	0x3c599d77	0.013282171
134	0x3e006814	0.12539703
135	0xbd6ffd40	-0.058591127
136	0x3d5f00b6	0.054444037
137	0x3d83e350	0.06439841
138	0xbd894068	-0.06701738
139	0x3ccc0ea1	0.02490932
140	0x3e149dc1	0.14513303
141	0x3d180c8d	0.037121344
142	0xbd0bdde3	-0.034147155
143	0x3c5a32a4	0.013317738
144	0xbd5fc8ef	-0.054634985
145	0xbd4adfd4	-0.049529865
146	0xbc9b4fa5	-0.018958876
147	0xbd8bd84c	-0.06828365
148	0xbcaddb96	-0.02122287
149	0xbdae5979	-0.08513159
150	0xbbc74d2a	-0.0060821967
151	0xbdc0be20	-0.094112635
152	0xbc8bcf16	-0.01706652
153	0x3d83c56f	0.06434142
154	0x3d9a6acf	0.07539903
155	0x3b97ca0d	0.0046322406
156	0xbdcea3b7	-0.1008982
157	0xbd3ef8d4	-0.04662402
158	0xbd61c67a	-0.055120923
159	0xbe09f0b6	-0.1347073
160	0x3d16cf5a	0.03681884
161	0x3b676717	0.003530925
162	0xbdee4a7c	-0.116353005
163	0x3ca67afa	0.020322312
164	0x3bdac83d	0.0066767023
165	0xbe2ecd0c	-0.17070407
166	0xbcc0cd0e	-0.023535278
167	0x3d5581e7	0.052125838
168	0xbde15000	-0.11001587
169	0x3d8fa8ce	0.07014619
170	0x3c8fa32e	0.017533865
171	0xbd8dddc8	-0.06927067
172	0xbd4f5401	-0.05061722
173	0x3cb320f0	0.021866292
174	0x3d033a83	0.032038223
175	0x3dc081de	0.0939977
176	0x3d921f9c	0.07134935
177	0x3d90c595	0.07068936
178	0xbe174fa3	-0.14776473
179	0xbda7c0fd	-0.081911065
180	0x3dd4b3c9	0.10385854
181	0xbcfeba5f	-0.031094728
182	0x3d41628a	0.047213115
183	0x3dc4852a	0.095957115
184	0x3d5b3c89	0.053524528
185	0xbbd8cb78	-0.0066160522
186	0xbd46eb62	-0.048564322
187	0xbd8b9a5c	-0.06816551
188	0x3d2b499a	0.04181824
189	0x3d241c1c	0.04006587
190	0x3dbd2764	0.09236029
191	0x3d266a4d	0.04062872
192	0xbcb1951e	-0.02167755
193	0x3cb8dc8f	0.022566108
194	0xbe1884ec	-0.14894456
195	0xbe2260a5	-0.1585718
196	0x3d2aa608	0.041662246
197	0xbd7087a6	-0.058723114
198	0xbe49da43	-0.19712166
199	0xbc8e3aa1	-0.01736194
200	0xbc9e2d29	-0.019308643
201	0xbd95a726	-0.07307272
202	0xbcd47394	-0.025934018
203	0xbc3e004a	-0.011596749
204	0xbea3eebd	-0.3201808
205	0xbc58b101	-0.013225795
206	0x3e2cabbb	0.16862385
207	0xbaaba3b1	-0.0013095048
208	0xbe261cc7	-0.16221915
209	0x3dc16dbc	0.09444758
210	0xbd4ba353	-0.049716305
211	0x3dcf40d6	0.10119788
212	0x3d6722f8	0.056429833
213	0xbc85c9d5	-0.016331593
214	0xbe0c7b16	-0.13718829
215	0xbda6e41b	-0.081489764
216	0xbdaed994	-0.085375935
217	0x3c5aec51	0.013362006
218	0xbcd9f754	-0.026607193
219	0xbb211b16	-0.0024582795
220	0x3d128c4d	0.035778333
221	0xbda02953	-0.07820382
222	0x3ca16c1c	0.01970487
223	0x3dd1c4fd	0.10242651
224	0x3d8551b5	0.06509725
225	0x3de29bec	0.11064896
226	0xbe0f0cb1	-0.13969685
227	0xbe39030d	-0.1806757
228	0x3e0be0ec	0.1366002
229	0x3c8223e1	0.015886249
230	0x3e1c39d3	0.15256433
231	0xbe2692a4	-0.16266876
232	0xbcfc7d59	-0.03082149
233	0xbe294b82	-0.1653271
234	0x3e38f241	0.18061163
235	0x3d6728a3	0.05643524
236	0xbdce59b1	-0.10075701
237	0xbd5f3254	-0.054491356
238	0x3e342598	0.17592466
239	0xbd85fc7c	-0.06542298
240	0xbd3e0505	-0.046391506
241	0xbd5bea80	-0.053690434
242	0xbe58664f	-0.21132778
243	0xbd418027	-0.047241356
244	0x3c89bb5b	0.01681297
245	0x3d864c7a	0.065575555
246	0x3d5210ea	0.05128566
247	0x3da5d606	0.08097462
248	0xbe5c53da	-0.21516362
249	0xbeb42883	-0.35187158
250	0x3d586559	0.052831028
251	0x3e08cbb4	0.13358957
252	0x3d2aabe7	0.041667845
253	0xbd27109c	-0.040787324
254	0x3c93b810	0.018032104
255	0xbc918acf	-0.017766384

classifier.1.bias f4 [10]
0	0x3b5b5992	0.0033470136
1	0xbcadccbc	-0.021215789
2	0x3d28da75	0.04122396
3	0xbd19e3d7	-0.0375708
4	0xbd4982d6	-0.04919704
5	0x3d02f14c	0.0319684
6	0xbd4e6858	-0.05039248
7	0x3d232156	0.039826714
8	0x3d2c5991	0.042077605
9	0x3c727aa4	0.014799748
