ann_models/cnn_model.pth (torch, 85639 bytes, 20 tensors)

network.0.weight f4 [32, 1, 3, 3]
0	0x3da25e41	0.07928134
1	0x3e48e770	0.19619536
2	0xbe71e27a	-0.2362155
3	0xbe8008cc	-0.2500671
4	0xbdfdc1ef	-0.123905055
5	0x3dbda603	0.0926018
6	0xbd9c76d9	-0.07639856
7	0x3e6511d0	0.22370076
8	0xbd3ace31	-0.045606796
9	0x3e295623	0.16536765
10	0x3c61ae5a	0.013774479
11	0xbd7c27c6	-0.06156137
12	0xbe72c207	-0.23706828
13	0xbe59ff84	-0.21288878
14	0xbe3aa17f	-0.18225668
15	0xbc43ad1b	-0.011943127
16	0x3e0223ad	0.12708922
17	0x3e54f0ff	0.20795058
18	0xbe824c17	-0.25448677
19	0xbe487b4c	-0.19578284
20	0x3cfdfd9e	0.031004723
21	0x3e8294ff	0.255043
22	0xbdb46bed	-0.08809648
23	0x3e22e69f	0.15908287
24	0xbd903fba	-0.07043405
25	0xbdbda6e9	-0.09260351
26	0x3e0fa254	0.14026767
27	0xbd24dae3	-0.04024781
28	0x3d6b6e11	0.057478014
29	0xbd22c4b8	-0.039738387
30	0xbd478b43	-0.048716795
31	0x3d85f75b	0.0654132
32	0xbd0af18f	-0.033921774
33	0xbcd15b5f	-0.025556264
34	0xbd30a282	-0.04312373
35	0xbd6b5eda	-0.057463504
36	0xbe6a88be	-0.22903726
37	0x3e680f4a	0.22662082
38	0x3e03fa2c	0.12888402
39	0x3e093db1	0.1340244
40	0x3da2ac11	0.07942975
41	0xbe27f89d	-0.16403432
42	0x3a90fe07	0.0011062034
43	0xbe4871b0	-0.19574618
44	0xbe5cb475	-0.21553214
45	0xbe2e2091	-0.1700461
46	0x3e1d6bbd	0.1537313
47	0x3e34f08e	0.1766989
48	0xbe324a97	-0.17411266
49	0xbde6afeb	-0.112640224
50	0x3cc4c7d7	0.024021072
51	0x3e5993ae	0.21247742
52	0x3cb6413d	0.022247905
53	0x3d44abd9	0.04801545
54	0x3e1fb493	0.15596227
55	0xbdba3470	-0.09092033
56	0x3e0670f5	0.13129027
57	0xbe6de1eb	-0.23230712
58	0xbe3a27c0	-0.18179226
59	0xbe774bc7	-0.2415
60	0x3e418c4b	0.18901174
61	0x3e61db64	0.22056347
62	0xbe16fcd0	-0.14744878
63	0x3d548a85	0.051889915
64	0x3da2e800	0.07954407
65	0xbde0c08a	-0.10974224
66	0xbd8fdd5e	-0.07024644
67	0x3da4bb9c	0.08043596
68	0x3e50cc35	0.20390399
69	0x3e3cb4a5	0.18428285
70	0xbe84de0a	-0.25950652
71	0xbe2fb12e	-0.17157432
72	0x3daf78cd	0.08567963
73	0x3e34d09d	0.17657705
74	0x3e3f1bf6	0.1866301
75	0x3e3c311c	0.18378109
76	0x3d9388f4	0.07203856
77	0xbe8309b0	-0.25593328
78	0xbc81cf90	-0.015846044
79	0xbe32e483	-0.17469983
80	0xbe91d97b	-0.28486237
81	0x3e26cd53	0.16289262
82	0x3e3a2928	0.18179762
83	0xbeb083b8	-0.34475493
84	0x3d91526e	0.070958
85	0xbcbed476	-0.023294669
86	0xbe115981	-0.141943
87	0xbd83cec1	-0.064359196
88	0x3e23980f	0.15975975
89	0xbe66f6b0	-0.22555041
90	0xbabcf738	-0.0014416939
91	0x3da8e1e4	0.0824621
92	0x3e4fc4a0	0.2028985
93	0x3dbd6a7c	0.09248826
94	0xbe8a6f86	-0.2703821
95	0xbe6916f1	-0.22762658
96	0x3e74e9a8	0.23917258
97	0x3ddf5dc6	0.10906558
98	0xbe6d0049	-0.2314464
99	0xbdf60775	-0.12013141
100	0x3e8279e5	0.25483623
101	0x3e79f64c	0.24410361
102	0xbe33b5c6	-0.1754981
103	0xbc8653c2	-0.01639736
104	0xbdaad2d3	-0.08340993
105	0xbe3d1c3e	-0.18467805
106	0xbe43a7c4	-0.19106966
107	0xbe9316ea	-0.2872842
108	0xbd9eb9fb	-0.07750317
109	0x3d7d9f7b	0.06191967
110	0xbd00cb30	-0.031443775
111	0x3dc5a06b	0.09649738
112	0xbe81676f	-0.25274226
113	0x3e9b9892	0.3038984
114	0x3e61b25f	0.220407
115	0xbeb4866c	-0.35258806
116	0xbc356564	-0.011071537
117	0xbcdc8539	-0.026918994
118	0x3bba8e7b	0.0056932545
119	0xbce5a0dc	-0.028030805
120	0x3e056e65	0.13030393
121	0x3dbed4ea	0.09317954
122	0xbe39314d	-0.18085213
123	0x3e1ffcf7	0.15623842
124	0xbe696696	-0.2279304
125	0xbe47a752	-0.19497421
126	0x3e0656a8	0.13118994
127	0xbde18e69	-0.11013491
128	0xbe16b622	-0.14717916
129	0xbe15f567	-0.14644395
130	0xbde1dc83	-0.110283874
131	0x3dae4c94	0.085107
132	0xbe65bf5b	-0.22436278
133	0xbc9f1e73	-0.019423699
134	0x3e4d14d5	0.20027478
135	0xbe0e8225	-0.13916834
136	0xbd1acfe3	-0.037795912
137	0xbd36de1a	-0.044645406
138	0x3b762919	0.0037561117
139	0x3dc7117c	0.09720132
140	0x3df81635	0.12113611
141	0x3df1f1bc	0.11813685
142	0x3e085c93	0.13316564
143	0xbd337618	-0.043813795
144	0xbe28097b	-0.16409867
145	0xbcaace1b	-0.020850232
146	0x3e7f99fb	0.24961083
147	0xbde9fb10	-0.114248395
148	0xbd75b3d9	-0.05998597
149	0xbc3a33db	-0.011364902
150	0xbd51c683	-0.051214706
151	0xbe15fc07	-0.14646922
152	0xbdf300b9	-0.11865372
153	0x3dbe787b	0.093003236
154	0x3e12bc1c	0.1432957
155	0xbea6ad57	-0.32554123
156	0x3e573153	0.2101491
157	0xbdec434a	-0.11536272
158	0xbd537bfc	-0.051631913
159	0xbde2f14e	-0.110811815
160	0xbe1ac395	-0.15113671
161	0xbe1ce527	-0.1532179
162	0xbda30926	-0.07960729
163	0xbe27b4a9	-0.1637751
164	0xbd9c05fe	-0.076183304
165	0xbd498187	-0.049195793
166	0xbe1196d9	-0.142177
167	0x3e09c7d3	0.13455133
168	0xbe93a827	-0.28839228
169	0xbd9aacaf	-0.07552468
170	0x3e7f5443	0.24934487
171	0xbe1f4bb8	-0.15556228
172	0x3e4656a5	0.1936899
173	0x3cd8b18c	0.026451848
174	0xbe806448	-0.2507651
175	0x3e60aa44	0.21939951
176	0xbd64b5b5	-0.05583735
177	0xbe611d80	-0.2198391
178	0x3e7c48c9	0.2463714
179	0xbe4779e4	-0.19480091
180	0xbc9b43dc	-0.018953256
181	0xbdf69210	-0.12039578
182	0x3dd62650	0.10456526
183	0x3dcfab03	0.1014004
184	0x3e1f2ba3	0.1554399
185	0x3e4a01d0	0.19727254
186	0xbdd561a5	-0.10419015
187	0xbde5b037	-0.11215251
188	0xbe9bfa6a	-0.30464488
189	0x3d593a42	0.053034075
190	0x3e36ef5d	0.17864747
191	0x3e7e2775	0.24819739
192	0xbe755a8b	-0.2396032
193	0xbc09cec3	-0.008411112
194	0xbe48f510	-0.19624734
195	0xbe4c373d	-0.19942947
196	0xbe4de8e2	-0.20108369
197	0xbbb8d2e7	-0.005640376
198	0xbe448544	-0.19191462
199	0xbcdcdc0a	-0.026960392
200	0x3e1a884f	0.1509106
201	0x3e3ab694	0.1823371
202	0xbe86c889	-0.2632487
203	0xbe65b5e6	-0.2243267
204	0xbdb68b19	-0.089132495
205	0x3e92d201	0.28675845
206	0xbd324869	-0.043526087
207	0x3df4d840	0.11955309
208	0x3d806046	0.06268363
209	0x3df596cb	0.11991652
210	0xbd12e358	-0.035861343
211	0xbd46de30	-0.04855174
212	0x3ddae377	0.10687917
213	0xbe36b816	-0.1784366
214	0xbde31ee3	-0.110898755
215	0xbaf6811f	-0.0018806792
216	0xbe3a9f2c	-0.18224782
217	0xbe269a0e	-0.16269705
218	0x3e90b5d5	0.28263727
219	0xbe722015	-0.23645051
220	0xbdb636e5	-0.08897189
221	0x3e9ff369	0.31240395
222	0x3dd8feee	0.10595499
223	0xbd7d76c3	-0.061880838
224	0xbe6886e5	-0.22707708
225	0x3e38ce47	0.18047439
226	0xbe278d3e	-0.16362473
227	0xbe1eac97	-0.15495525
228	0xbe0c9b5b	-0.13731138
229	0xbdeca7f9	-0.11555476
230	0xbdda41df	-0.10657095
231	0x3e1eb6ec	0.15499467
232	0x3a575614	0.0008214426
233	0x3e993a7b	0.2992743
234	0x3e77a255	0.24183019
235	0xbe44df84	-0.1922589
236	0x3db19138	0.086702764
237	0xbe809d8c	-0.251202
238	0xbde69716	-0.11259286
239	0x3e0d0585	0.13771637
240	0x3ce8ee4a	0.028433938
241	0x3e6ad991	0.22934557
242	0xbe3b46e6	-0.18288764
243	0xbcb59416	-0.02216534
244	0x3e2079b1	0.15671422
245	0xbe655ba1	-0.22398235
246	0x3e5bce18	0.21465337
247	0xbe85b192	-0.26112038
248	0x3dafd685	0.08585838
249	0xbe15889a	-0.1460289
250	0xbe3942bf	-0.18091868
251	0x3e089ec7	0.13341819
252	0x3e68058b	0.22658364
253	0xbcbd877a	-0.02313589
254	0xbe71ce55	-0.23613866
255	0xbccc92ab	-0.02497228

network.0.bias f4 [32]
0	0xb9b0ed7d	-0.00033746278
1	0x3a48beae	0.0007657808
2	0xbb588d40	-0.0033043176
3	0x3a745ac0	0.0009321384
4	0x3925b0ce	0.00015801491
5	0xbb0c2efa	-0.0021390305
6	0xb94244ac	-0.00018526864
7	0xba79acb7	-0.00095243327
8	0xba4b9033	-0.0007765323
9	0x3a4bbcd8	0.00077719754
10	0xbacdbc42	-0.0015696364
11	0x39a7f2dc	0.00032033667
12	0x3a0cb38d	0.00053673313
13	0x3b186cda	0.002325824
14	0xb9a0b921	-0.0003065551
15	0xba4d52ea	-0.00078324846
16	0xbaa22d6c	-0.0012373156
17	0xb93c4a1a	-0.00017956682
18	0xb96e8673	-0.00022747535
19	0xb72246a0	-9.672396e-06
20	0x3a319e27	0.00067755807
21	0x3a24f680	0.0006292835
22	0x3a594feb	0.0008289802
23	0x3b2a0441	0.0025942477
24	0xbaa74f4a	-0.0012764719
25	0x3b0f1f20	0.002183862
26	0xba3ad471	-0.0007126993
27	0xb878e510	-5.934114e-05
28	0xb913f420	-0.00014109956
29	0x3ad59f28	0.0016298043
30	0x39815ed4	0.0002467545
31	0xb9eac2ee	-0.00044777192

network.1.weight f4 [32]
0	0x3f186ad3	0.59538
1	0x3f3b7542	0.73225796
2	0x3f0658cd	0.5247925
3	0x3eb1eb58	0.34749866
4	0x3efad9b9	0.48994234
5	0x3e9cf29d	0.3065385
6	0x3f4d2778	0.8013835
7	0x3ebc540e	0.3678288
8	0x3f0c217a	0.5473858
9	0x3ee917aa	0.45525867
10	0x3f1938f7	0.59852546
11	0x3f3ee40f	0.7456674
12	0x3f5fd86f	0.87439626
13	0x3f03a480	0.5142288
14	0x3f326e16	0.6969923
15	0x3e8b4c51	0.27206662
16	0x3f05cd75	0.5226663
17	0x3f3122ab	0.69193524
18	0x3f1cbff7	0.61230415
19	0x3f017405	0.50567657
20	0x3f435a3f	0.7630958
21	0x3f12fd93	0.57418174
22	0x3f5724f8	0.84040785
23	0x3eeb8577	0.46000263
24	0x3f2802b0	0.656291
25	0x3f221d7b	0.63326234
26	0x3f2b7120	0.6696949
27	0x3f5600b4	0.8359482
28	0x3ef4a239	0.47780016
29	0x3e847d70	0.2587695
30	0x3f55101f	0.83227724
31	0x3f1c1937	0.60975975

network.1.bias f4 [32]
0	0xbd250bd2	-0.040294476
1	0x3d3f2c12	0.046672888
2	0xbdfc0db2	-0.123073
3	0xbe14562e	-0.14486
4	0xbd0502f0	-0.032473505
5	0xbe77455c	-0.24147552
6	0xbc025417	-0.007954619
7	0xbe59940c	-0.21247882
8	0xbd98cee8	-0.07461339
9	0xba7a93b0	-0.00095587503
10	0xbe6857f0	-0.22689795
11	0xbde24dc4	-0.11049989
12	0x3d984991	0.07435907
13	0xbd72c794	-0.059272364
14	0xbe127d27	-0.14305554
15	0xbe9508e9	-0.2910836
16	0xbe28e7e5	-0.1649471
17	0xbdc0d00c	-0.09414682
18	0xbe1e5107	-0.15460597
19	0xbd5e48fa	-0.054268815
20	0x3d36076c	0.04444067
21	0xbdbd7f18	-0.09252757
22	0x3bf6ff5b	0.007537765
23	0xbe43e7dc	-0.19131416
24	0xbcf599a3	-0.029980486
25	0xbd8c7aab	-0.068593346
26	0xbdf0d995	-0.117602505
27	0xbd86fb77	-0.06590932
28	0xbdf0ee4c	-0.117642015
29	0xbe8e7f25	-0.2783138
30	0xbd770e43	-0.060316335
31	0xbe2cb3bd	-0.1686544

network.1.running_mean f4 [32]
0	0xbcbc0e66	-0.022956084
1	0xbce1dd6c	-0.027571402
2	0xbcb0df72	-0.021590922
3	0xbcd8622f	-0.026414005
4	0xbd0e7f5a	-0.03478942
5	0x3cb43d30	0.022001833
6	0xbcefab6a	-0.029256541
7	0xbb0fa40f	-0.0021917855
8	0xbbe1d7b2	-0.006892168
9	0xbd087ca7	-0.033322003
10	0xbb14a87e	-0.0022683437
11	0xbdb3da0d	-0.08781824
12	0xbb5e9fac	-0.0033969684
13	0xbd267c5a	-0.040645935
14	0xbd586b99	-0.052836988
15	0x3cfd02b4	0.030885078
16	0xbd87cdc6	-0.06631045
17	0xbd904092	-0.07043566
18	0xbd9ab302	-0.07553674
19	0xbce77e9f	-0.02825862
20	0xbc83e7f2	-0.016101811
21	0xbd6ae799	-0.057349775
22	0xbd077c03	-0.03307725
23	0x3bd26cbd	0.006421654
24	0xbd25520b	-0.040361445
25	0xbba6a8f5	-0.005086059
26	0xba883df0	-0.0010394435
27	0xbd1b155f	-0.037862178
28	0xbd59cd88	-0.053174525
29	0x3d0fd1dc	0.035112247
30	0xbd697a14	-0.05700119
31	0x3b3e444a	0.0029032403

network.1.running_var f4 [32]
0	0x3bad574c	0.0052899476
1	0x3c3c8b44	0.011507813
2	0x3c21a108	0.009865053
3	0x3b127b27	0.0022351237
4	0x3c6d2b36	0.014475634
5	0x3bfc9741	0.0077084606
6	0x3c255d7c	0.010093089
7	0x3b9a816e	0.0047151363
8	0x3cfaefe8	0.030631974
9	0x3caaa0e8	0.02082868
10	0x3c53cde8	0.01292751
11	0x3d3031ac	0.04301612
12	0x3b9a77ce	0.004713989
13	0x3c8f493a	0.017490972
14	0x3c9fe245	0.019517073
15	0x3c1b36a4	0.009473477
16	0x3ca66270	0.02031061
17	0x3d00e9f0	0.0314731
18	0x3d11e590	0.03561932
19	0x3c1f3c81	0.009719015
20	0x3bf9bd3a	0.0076214345
21	0x3ce988ef	0.028507678
22	0x3bead9cb	0.007167076
23	0x3bfb3bb7	0.0076670307
24	0x3ca65e32	0.020308588
25	0x3c43ec4f	0.011958196
26	0x3b4d0b6d	0.0031287328
27	0x3c239886	0.009985095
28	0x3c82db5c	0.01597374
29	0x3be002d9	0.006836277
30	0x3cecad8f	0.028891353
31	0x3b81d756	0.0039624376

network.4.weight f4 [32, 32, 3, 3]
0	0xbd63319b	-0.05546723
1	0x3c74554f	0.014912917
2	0x3d46a364	0.048495665
3	0x3c551fd2	0.013008075
4	0x3d49834b	0.049197476
5	0x3cb0972e	0.021556463
6	0x3d0dd88d	0.034630347
7	0xbcb4fe22	-0.022093836
8	0xbd3862ae	-0.045015983
9	0xbcfa070e	-0.030520942
10	0x3ce8a5bb	0.028399339
11	0x3d8152d0	0.06314623
12	0x3dbe5687	0.092938475
13	0x3daa990b	0.08329972
14	0xbc2cb153	-0.010540324
15	0x3d6f0aa2	0.05835975
16	0x3d14887d	0.036262978
17	0xbd69f294	-0.057116106
18	0xbabbb986	-0.0014322258
19	0x3c859040	0.016304135
20	0x3d380c0a	0.044933356
21	0xbd7e8ea9	-0.06214777
22	0x3ccfa7c7	0.025348557
23	0x3d942de1	0.07235313
24	0xb9924652	-0.00027899683
25	0x3d0bdfb2	0.03414888
26	0x3bdc55f2	0.0067241127
27	0xbb3d811c	-0.0028916067
28	0x3b7361dd	0.0037137188
29	0xb9fe418b	-0.0004849549
30	0x3badd212	0.0053045833
31	0x3c2ccbae	0.010546608
32	0x3b9627cc	0.004582381
33	0x3c80a020	0.015701354
34	0x3c7927cf	0.015207245
35	0x3c03490e	0.008013023
36	0x3ce7e8f2	0.02830932
37	0x3d4e1740	0.05031514
38	0x3b9287ac	0.0044717398
39	0x3cb95a2e	0.022626009
40	0x3ca6bf78	0.020354971
41	0xbc8baac4	-0.0170492
42	0x3cd4fe59	0.026000189
43	0x3c85f19d	0.016350562
44	0x3d8ef078	0.069794595
45	0x3c120c9d	0.00891414
46	0x3c31eb52	0.010859327
47	0x39b75c80	0.00034973398
48	0xbcd6d344	-0.026223786
49	0xbc23d8d1	-0.0100004235
50	0x3bdb137f	0.0066856737
51	0xbc41ee6a	-0.0118366275
52	0xbc8c65d6	-0.017138403
53	0x3c5e00d8	0.013550006
54	0xbc2b6872	-0.010461913
55	0xbcb8bd06	-0.02255107
56	0x3d5e4252	0.054262467
57	0x3d36d0da	0.04463277
58	0xbc66b233	-0.014080572
59	0xbc39cfcc	-0.011341047
60	0xbcf1924e	-0.029488709
61	0xbd8790d3	-0.0661942
62	0xbddaa6ce	-0.10676347
63	0x3cc29950	0.023754746
64	0xbc633e38	-0.013869815
65	0x3a5e6df2	0.0008485011
66	0x3c99c3d4	0.018770136
67	0x3d266eff	0.040633198
68	0xbc86b1e1	-0.016442241
69	0xbd0c501b	-0.034256082
70	0xbb1a9d9f	-0.0023592485
71	0x3d8ac18e	0.06775199
72	0xbcbd2442	-0.023088578
73	0xbcc367f6	-0.023853283
74	0xbd298b8b	-0.041392844
75	0x3bec466e	0.0072105443
76	0x3d1b6eef	0.03794759
77	0xb9fbcbb8	-0.00048026233
78	0xbbd41ae7	-0.0064729336
79	0x3cb1aa0c	0.02168753
80	0x3dbd95b0	0.09257066
81	0x3a953fc0	0.0011386797
82	0xbd08b0d7	-0.033371773
83	0xbadb3cc0	-0.0016726479
84	0xbd3c51d4	-0.045976475
85	0xbcf782c0	-0.030213714
86	0x387d090a	6.032832e-05
87	0xbbcd7c39	-0.006270912
88	0xbaafc3ab	-0.0013409754
89	0x3d154f44	0.036452547
90	0xbc96b8e4	-0.01839871
91	0xbcaa8a33	-0.020817852
92	0x3b89fb8c	0.004210895
93	0xbd2b2fb9	-0.04179356
94	0xbd221bd6	-0.039577328
95	0xbbdb6218	-0.0066950433
96	0xbdca9596	-0.098918125
97	0xbd1c909f	-0.03822386
98	0x3cf53eb4	0.029937126
99	0x3d8000cc	0.06250152
100	0x3d32a993	0.04361875
101	0x3d4012a7	0.04689279
102	0x3ce3a664	0.027789302
103	0x3cfb6306	0.030686866
104	0x3d2352d9	0.03987393
105	0x3dd754b1	0.105142005
106	0x3c0b55d3	0.008504349
107	0xbc8ca16f	-0.017166821
108	0xbc8de7e5	-0.01732249
109	0xbd8080e3	-0.06274583
110	0xbdee2e29	-0.11629898
111	0xbd49b0b6	-0.04924079
112	0x3bb6ab5c	0.005574627
113	0xbd23b855	-0.039970715
114	0xbdfbd7e2	-0.12297036
115	0xbd653e70	-0.05596775
116	0xbdf5de10	-0.12005246
117	0xbd121aed	-0.03567021
118	0xbcb9d7df	-0.022685943
119	0xbd682355	-0.05667432
120	0xbd056f55	-0.032576878
121	0xbbbb878a	-0.0057229446
122	0xbc30b318	-0.010784887
123	0xbc2eb33e	-0.010662852
124	0xbd09a555	-0.03360494
125	0x3d5aa549	0.053380284
126	0xbd8c1d75	-0.06841556
127	0xbc318cdd	-0.010836807
128	0x3c856470	0.016283244
129	0xbd1bc9ec	-0.038034365
130	0x3d5cde16	0.053922735
131	0x3c85d13c	0.016335122
132	0xbac57370	-0.001506431
133	0x3d6480a4	0.055786744
134	0xbce4855a	-0.027895618
135	0x3c359cfe	0.011084793
136	0xbba0ac14	-0.004903326
137	0x3d0a0f61	0.033706073
138	0xbd949546	-0.07255034
139	0xbc543203	-0.012951377
140	0xbbbe346d	-0.0058045895
141	0xbd5ae098	-0.053436846
142	0xbafdea80	-0.0019372255
143	0xbc503d84	-0.012709979
144	0x3d0008c2	0.031258352
145	0x3cb431ee	0.021996465
146	0x3cfb74b8	0.030695304
147	0x3bb540be	0.0055313995
148	0xb9ab8014	-0.00032711087
149	0x3ce9adcb	0.028525254
150	0x3d09a4c5	0.033604402
151	0x3d27b3a9	0.04094282
152	0x3d89f874	0.06736842
153	0xbc1a24aa	-0.009408155
154	0xbcab2a81	-0.02089429
155	0xbd2d23a8	-0.042270333
156	0xbc6b1bf3	-0.014349925
157	0x3c7f32c2	0.015576066
158	0xbd178a6e	-0.03699725
159	0x3d807561	0.06272388
160	0x3d461337	0.04835817
161	0x3d09f0c1	0.033676866
162	0xbda4cc35	-0.08046762
163	0xbc5c59f1	-0.013449178
164	0x3c4811e9	0.012211301
165	0xbcb66d01	-0.022268774
166	0x3d006d4d	0.031354237
167	0x3d3bc171	0.045838777
168	0xbcf4cb80	-0.029882193
169	0x3c8b1cb9	0.01698147
170	0x3ca14a8c	0.019688867
171	0xbd2b4a78	-0.041819066
172	0x3d2972e2	0.041369326
173	0x3d2e4314	0.04254444
174	0xbcc05327	-0.02347715
175	0xb982227f	-0.00024821234
176	0x3d747890	0.05968529
177	0xbd09b544	-0.033620134
178	0xbd450593	-0.04810102
179	0x3dc592c6	0.096471354
180	0x3d0c9a29	0.034326706
181	0x3d9386dd	0.072034575
182	0x3ca0fa5b	0.019650629
183	0x3d9286b0	0.07154596
184	0x3da4f6d5	0.08054892
185	0xbbb15691	-0.005411931
186	0x3dd1e181	0.102480896
187	0x3d36931a	0.04457388
188	0x3e1c186c	0.15243691
189	0x3d265dc6	0.040616773
190	0x3cfa98e9	0.030590491
191	0x3d94d89c	0.072678775
192	0x3cadb051	0.021202238
193	0xbbe654cb	-0.007029151
194	0x3d32f166	0.043687247
195	0x3dd5d137	0.10440295
196	0xbbd0c6a2	-0.006371335
197	0x3c85f9a3	0.016354388
198	0x3cd53247	0.02602495
199	0x3bde4c84	0.0067840237
200	0x3bef4808	0.007302288
201	0x3d15a32e	0.036532573
202	0xbc123454	-0.008923609
203	0xbdbbb7d4	-0.09165922
204	0xbbf53beb	-0.0074839494
205	0xbc99508b	-0.018715164
206	0xbd1e9def	-0.038724836
207	0xbb6dfaa1	-0.0036312717
208	0x3b1e6776	0.0024170554
209	0x3ccb1a7a	0.024792898
210	0x3d4a37e0	0.049369693
211	0x3c7fecb5	0.0156204
212	0x3d170745	0.036872167
213	0x3cb799de	0.022412237
214	0xbd2794bd	-0.040913332
215	0x3cad74d5	0.021173874
216	0x3c21706d	0.009853465
217	0x3c465e53	0.01210745
218	0xbc8aa7af	-0.01692566
219	0xbcad20fe	-0.021133896
220	0xbd0b168b	-0.033957046
221	0x3cb713f1	0.022348376
222	0xbc2188cb	-0.009859274
223	0xbb8af0d6	-0.0042401357
224	0x3dcd4f34	0.100248724
225	0x3cd297cb	0.025707146
226	0x3d082d03	0.03324605
227	0x3d7499ff	0.059717175
228	0xbc43635c	-0.011925545
229	0x3d10e951	0.035378758
230	0xbd0c4454	-0.03424485
231	0xbd06a0b3	-0.0328681
232	0xbc54ecf7	-0.01299595
233	0xbe08c2e9	-0.13355602
234	0x3b82ea0a	0.003995185
235	0x3dbb028e	0.09131347
236	0x3ca73f73	0.020415997
237	0x3d16611a	0.036713697
238	0x3da0f6f2	0.07859601
239	0x3c6fc931	0.01463537
240	0xbc05cd2a	-0.008166591
241	0x3b2298b9	0.0024810268
242	0xbc09864e	-0.008393837
243	0xbcf7b519	-0.030237721
244	0xba3545c8	-0.0006915
245	0xbbcf8ffb	-0.0063343025
246	0x3cb561b2	0.022141311
247	0x3d76bde2	0.06023968
248	0xbb08b6ab	-0.0020860832
249	0x3d7a4a70	0.061106145
250	0x3dcc8cc8	0.099877894
251	0xbc3464c2	-0.011010351
252	0x3bd37848	0.0064535476
253	0xbcb797e5	-0.022411296
254	0xbc0d9bca	-0.0086431
255	0x3c7ece1f	0.015552073

network.4.bias f4 [32]
0	0x37cb0c10	2.4205103e-05
1	0xb5b78d40	-1.3675672e-06
2	0x393fb4a4	0.00018282473
3	0x3a0af7d4	0.00053012115
4	0x38e38db7	0.000108506
5	0x3a1c2083	0.00059557724
6	0xb6066260	-2.0024818e-06
7	0x3a4be2af	0.0007777614
8	0xb9ef12f0	-0.00045599742
9	0x38885bb6	6.502068e-05
10	0x388a7066	6.6012886e-05
11	0x37f5522b	2.9244538e-05
12	0x39182b39	0.00014511951
13	0xb8551624	-5.0803777e-05
14	0xb8c82218	-9.5430936e-05
15	0x354cb500	7.625931e-07
16	0x3990d0fe	0.00027621532
17	0xba25350e	-0.0006302156
18	0xb83a8684	-4.4471133e-05
19	0xba1cd60e	-0.00059828244
20	0x38b296fb	8.515824e-05
21	0xb8c93fef	-9.5963354e-05
22	0xb8b851ac	-8.789016e-05
23	0x394e825f	0.00019694258
24	0xb7711640	-1.43699e-05
25	0x3a0231e2	0.00049665396
26	0xb8ac27be	-8.209002e-05
27	0x38df8564	0.000106583146
28	0xb7bb6370	-2.2338441e-05
29	0xb761e4f8	-1.3464356e-05
30	0x3a130e06	0.00056096946
31	0xb91c3f70	-0.00014900952

network.5.weight f4 [32]
0	0x3f085a0f	0.5326242
1	0x3f146632	0.5796844
2	0x3f4b5579	0.79427296
3	0x3f074469	0.5283876
4	0x3f2efc8f	0.68354124
5	0x3f0faefe	0.5612639
6	0x3f37d3fb	0.7180783
7	0x3f2b0d0a	0.6681677
8	0x3f1b7450	0.60724354
9	0x3f2ac4fc	0.66706824
10	0x3f2aab37	0.66667503
11	0x3f2ac692	0.66709244
12	0x3f3e9578	0.7444682
13	0x3ee9148f	0.45523497
14	0x3f2bf3f3	0.6716911
15	0x3f3d534b	0.7395522
16	0x3f107a95	0.56437045
17	0x3f0fd825	0.56189185
18	0x3f0a61dc	0.5405557
19	0x3f0bee5d	0.5466059
20	0x3f18d89a	0.5970551
21	0x3f37b61e	0.71762264
22	0x3f12031d	0.57036
23	0x3f490cc2	0.7853509
24	0x3f2c9f61	0.6743069
25	0x3f14cd21	0.581255
26	0x3f1dfc5e	0.61713207
27	0x3f22b841	0.635624
28	0x3f1f62ed	0.62260324
29	0x3f2d5e11	0.6772166
30	0x3f43a196	0.76418436
31	0x3f2f76a9	0.68540436

network.5.bias f4 [32]
0	0xbe2c47c9	-0.16824259
1	0xbec33ddf	-0.3813314
2	0xbe21ff3b	-0.15820019
3	0xbe9a4487	-0.30130407
4	0xbe2a666f	-0.16640638
5	0xbe3af5cd	-0.18257828
6	0xbe97fe5b	-0.29686245
7	0xbea02f55	-0.3128611
8	0xbea207b5	-0.31646505
9	0xbe481487	-0.1953908
10	0xbe49ee15	-0.19719727
11	0xbe529793	-0.20565633
12	0xbe875d06	-0.2643816
13	0xbdc516da	-0.09623499
14	0xbe59a1d3	-0.21253137
15	0xbe550c64	-0.20805508
16	0xbe0f7263	-0.14008479
17	0xbe2ac6a5	-0.1667734
18	0xbd8d32c4	-0.068944484
19	0xbe34dd91	-0.17662646
20	0xbe27dad6	-0.16392073
21	0xbdc5e595	-0.0966293
22	0xbe84284f	-0.25812003
23	0xbe636f68	-0.22210467
24	0xbe598173	-0.21240787
25	0xbe87e5d0	-0.2654252
26	0xbe31fa5b	-0.1738066
27	0xbe303ca4	-0.17210633
28	0xbea93ba8	-0.33053327
29	0xbe5baef5	-0.2145346
30	0xbe9d4f42	-0.3072453
31	0xbe267b08	-0.1625787

network.5.running_mean f4 [32]
0	0x3d8ffa56	0.0703017
1	0xbaf99708	-0.0019042203
2	0xbca173ae	-0.01970848
3	0x3d1534b6	0.036427222
4	0xbd7f12a1	-0.062273625
5	0xbe06bf6f	-0.13158964
6	0x3e3cf80f	0.18454002
7	0xbdc7adb0	-0.09749925
8	0xbdb16c9a	-0.08663292
9	0x3da8d818	0.082443416
10	0xbe0bb24b	-0.13642232
11	0x3c21cc13	0.009875315
12	0x3dcea1b9	0.1008944
13	0xbe7b2585	-0.24526031
14	0xbea0fe06	-0.31443805
15	0xbe1cd7b3	-0.15316658
16	0xbd85d898	-0.065354526
17	0xbdd596de	-0.10429166
18	0xbe92fe1a	-0.2870949
19	0x3e2bae8b	0.16765802
20	0xbeb3acca	-0.35092765
21	0xbe170542	-0.147481
22	0xbe4559e4	-0.19272572
23	0xbde17bd8	-0.110099494
24	0xbdc0343f	-0.09384965
25	0xbddaeaab	-0.106892906
26	0x3dbe78de	0.09300397
27	0xbe44feb9	-0.19237794
28	0xbe8076c9	-0.25090626
29	0xbcf14d28	-0.029455736
30	0xbd9d4bff	-0.07680511
31	0x3d6e8208	0.058229476

network.5.running_var f4 [32]
0	0x3e280f90	0.16412187
1	0x3dbf172a	0.0933059
2	0x3e0b4490	0.13600373
3	0x3d7e1467	0.062031176
4	0x3e0c2534	0.13686067
5	0x3d9938e3	0.074815534
6	0x3e4c55ee	0.19954655
7	0x3d8b8afe	0.0681362
8	0x3d8bfd81	0.068354614
9	0x3e1db9a0	0.15402842
10	0x3e0863d8	0.13319337
11	0x3e1a1bc5	0.15049656
12	0x3e27b249	0.16376604
13	0x3db10d62	0.08645131
14	0x3e226172	0.15857485
15	0x3dfde344	0.12396863
16	0x3df6f005	0.12057499
17	0x3e11f375	0.14253028
18	0x3e00a097	0.1256126
19	0x3e05e3de	0.13075206
20	0x3de0b6d0	0.10972369
21	0x3e50c39b	0.20387118
22	0x3d96fa86	0.07372002
23	0x3e13302a	0.14373842
24	0x3dcfd34f	0.10147726
25	0x3dd0a8b6	0.10188429
26	0x3dd6ad19	0.104822345
27	0x3e0cd78d	0.13754101
28	0x3dbd6aa9	0.092488594
29	0x3e4b5e58	0.19860208
30	0x3dca0048	0.09863335
31	0x3dd733a9	0.105079

network.8.weight f4 [32, 32, 3, 3]
0	0x3d50f4cb	0.051014703
1	0x3d753209	0.05986217
2	0x3ce30842	0.027713899
3	0x3c82d5c6	0.015971076
4	0x3c1fcd29	0.009753504
5	0xbc07fb99	-0.008299732
6	0xbd2318a4	-0.03981842
7	0xbcf646a1	-0.030062975
8	0xbd9bf656	-0.07615344
9	0xbc8f5925	-0.017498562
10	0x3d128182	0.03576804
11	0x3dedf1df	0.11618399
12	0x3ca336c8	0.019923583
13	0xbb2fd127	-0.0026827545
14	0x3e135697	0.143885
15	0x3ce8e31e	0.02842861
16	0xba3d03ba	-0.0007210333
17	0xbbe98f1b	-0.007127655
18	0xbb3bac05	-0.0028636467
19	0xbc1b5096	-0.009479662
20	0x3d4c1c04	0.049831405
21	0xbd7a27b3	-0.061073016
22	0xbcb20375	-0.021730164
23	0x3d03206a	0.032013334
24	0x3d2bc188	0.041932613
25	0xbc868d4e	-0.016424801
26	0xbd246c24	-0.040142193
27	0xbc4d9ad8	-0.012549125
28	0xbca2d095	-0.01987485
29	0xbaf93b5d	-0.0019014884
30	0xbce1fa8e	-0.027585294
31	0x3c88d189	0.016701477
32	0x3da65e7b	0.081234895
33	0x3d375644	0.044760004
34	0x3d65a6e2	0.056067355
35	0x3c9d6370	0.019212455
36	0xbb92df7b	-0.0044822074
37	0xbd1cd42c	-0.03828828
38	0xbdf5cfc0	-0.12002516
39	0x3d1dcb68	0.03852406
40	0xbd544c6d	-0.051830698
41	0xbdee7673	-0.11643686
42	0xbb676df9	-0.0035313352
43	0xb9d3ef7e	-0.00040423492
44	0x3da805f3	0.0820426
45	0xbd3afe91	-0.04565293
46	0x3c9f1d1f	0.019423066
47	0x3d438cae	0.047741584
48	0xbcbcf9b9	-0.023068296
49	0xbce1d2e1	-0.027566375
50	0xbdab4fc6	-0.08364825
51	0x3cbbc99a	0.02292328
52	0x3cc79b43	0.024366027
53	0x3c78223c	0.015144881
54	0xbd202a17	-0.03910264
55	0xbc45d20e	-0.012074007
56	0x3c67db12	0.0141513515
57	0xbcc2f62b	-0.023799023
58	0xbb991b90	-0.004672475
59	0x3d2775ae	0.040883712
60	0x3a960b2b	0.001144742
61	0xbb736e1c	-0.0037144488
62	0xbd5ebabe	-0.05437731
63	0xbca39a8a	-0.01997115
64	0x3d3dfbab	0.046382587
65	0x3b5ac2ce	0.0033380273
66	0xbc574d3a	-0.013140971
67	0xbce12f76	-0.027488451
68	0x3b40ea31	0.0029436464
69	0xbd1645d8	-0.036687702
70	0x3dbfd4de	0.09366773
71	0x3d722fb0	0.05912751
72	0xbcc8ce1c	-0.024512343
73	0xbca6082d	-0.02026757
74	0xbd748163	-0.059693705
75	0x3c4e7b6d	0.012602669
76	0xbc9dcf26	-0.019263815
77	0xbdcc817e	-0.09985636
78	0x3b59a3be	0.003320917
79	0xbb9be29c	-0.0047572386
80	0x3dff4d17	0.124658756
81	0xbcb4e11b	-0.022079995
82	0xbd6ecafc	-0.05829905
83	0xbd88f384	-0.06687072
84	0x3d3b1db7	0.045682635
85	0x3d000935	0.03125878
86	0xbccc1800	-0.024913788
87	0x3b6edfc5	0.0036449295
88	0xbc02d808	-0.007986076
89	0xbc4bf90e	-0.012449516
90	0x3c8229ae	0.015889015
91	0x3d03a5ce	0.032140546
92	0x3d3a781b	0.045524698
93	0x3cea91df	0.02863401
94	0xbcce4793	-0.025180614
95	0x3d0bd833	0.03414173
96	0x3d93923b	0.072056256
97	0x3c27a8c5	0.010233109
98	0xbdae1cd4	-0.08501592
99	0x3cc05d00	0.023481846
100	0x3d96f3e4	0.07370737
101	0xbce125c7	-0.027483834
102	0xbc8ec415	-0.017427484
103	0xbc86e6ca	-0.01646747
104	0xbd013753	-0.031546902
105	0x3c9a48a6	0.01883347
106	0x3c843be3	0.016141837
107	0x3d752ff5	0.05986019
108	0xbd055211	-0.032548968
109	0xbd0b729b	-0.034044843
110	0xbcbeb0b4	-0.023277618
111	0xbd1bd7f7	-0.038047757
112	0xbce0db99	-0.027448462
113	0xbcf04b97	-0.029332919
114	0xbd7648cf	-0.06012803
115	0xbd07a5bd	-0.033117045
116	0xbd9838b4	-0.0743269
117	0xbc68e899	-0.014215612
118	0x3c41da92	0.011831896
119	0xbb411d16	-0.00294668
120	0x3c1bfa64	0.009520147
121	0xbca656b0	-0.020305008
122	0x3b5b1e79	0.0033434911
123	0xbd33cd98	-0.04389724
124	0xbd3e05d0	-0.046392262
125	0xbce8b330	-0.028405756
126	0xbcbf4c9b	-0.023351958
127	0xbc7d40d2	-0.015457349
128	0xbd89596e	-0.067065105
129	0xbbb1cd75	-0.0054261037
130	0xbbc70474	-0.006073529
131	0xbc634364	-0.013871048
132	0x3d4a00e9	0.049317274
133	0xbcae67d4	-0.021289743
134	0xbcd9a452	-0.026567612
135	0x3cc83cd8	0.024443075
136	0x3c869fac	0.01643356
137	0x3dc1ee27	0.09469252
138	0x3d0567fa	0.032569863
139	0x3b8dfd9b	0.0043332106
140	0x3cfb8565	0.030703256
141	0xbc6b17c6	-0.01434893
142	0xbd6bc1b4	-0.057557777
143	0xbdbfc143	-0.093630336
144	0x3d5a4a6d	0.053293634
145	0x3db9482c	0.09046969
146	0xbd1b20e9	-0.037873182
147	0xbb838deb	-0.0040147207
148	0xbb877be3	-0.0041346415
149	0x3cac846a	0.021059234
150	0xbcd6b267	-0.026208116
151	0x3d5b2b25	0.053507943
152	0x3cfcb22e	0.030846681
153	0x3c2da93d	0.010599432
154	0x3d4677f0	0.048454225
155	0x3c88ec55	0.016714254
156	0xbcc17f26	-0.0236202
157	0x3bfc83af	0.0077061276
158	0xbd4a89a6	-0.049447678
159	0x3d50afb9	0.050948832
160	0xbcb29534	-0.021799661
161	0x3d1375b3	0.03600092
162	0x3b47e9b9	0.00305043
163	0x3d3c838d	0.046023894
164	0x3d0c91d8	0.034318775
165	0xbb8b0165	-0.0042421096
166	0x3d8e28e7	0.06941395
167	0x3d8944af	0.067025535
168	0xbca8679b	-0.020557215
169	0x3c811648	0.015757695
170	0xbc2f5696	-0.010701796
171	0xbd032635	-0.03201886
172	0xbbc75226	-0.006082791
173	0xbc9a3867	-0.018825723
174	0x3a756bf8	0.0009362097
175	0x3c91b736	0.017787557
176	0xbbd2bf89	-0.006431524
177	0xbca24080	-0.019806147
178	0xbc912369	-0.01771708
179	0xbce090db	-0.027412822
180	0x3c823c6c	0.015897952
181	0x3d12c947	0.035836484
182	0xbb032dab	-0.0020016234
183	0xbb95fc33	-0.0045771836
184	0xbd4a1f5a	-0.049346305
185	0xbcb5760b	-0.022151014
186	0xbd1a4acc	-0.037668988
187	0xbc8a6135	-0.016892055
188	0xbcb7ce5e	-0.02243727
189	0xbd1575aa	-0.036489166
190	0xbd7c0f8a	-0.061538257
191	0xbdc73e97	-0.09728735
192	0x3d728902	0.059212692
193	0x3d752ccf	0.059857186
194	0x3c3ea0e9	0.011635044
195	0xbcdaaded	-0.026694262
196	0x3bc94ef8	0.006143447
197	0x3dac2033	0.08404579
198	0x3bf2657e	0.0073973527
199	0xbc9ccb19	-0.019139813
200	0xbd4322e6	-0.047640704
201	0x3d4dff4f	0.05029231
202	0x3ce1d621	0.027567925
203	0x3ca45cbd	0.020063752
204	0xbd1bdb3b	-0.03805087
205	0x3d083e20	0.033262372
206	0xbc5d8e56	-0.013522705
207	0x3cabf4f3	0.020990824
208	0x3d5598e6	0.05214777
209	0x3e388c53	0.1802228
210	0x3d850726	0.06495504
211	0x3cab05ec	0.020876847
212	0xbb87f247	-0.0041487548
213	0xbd0d7c8c	-0.034542605
214	0xbd6fe9ac	-0.058572456
215	0xbdfb729d	-0.1227772
216	0x3d34541b	0.04402552
217	0x3cf62176	0.030045252
218	0x3b76f90e	0.003768507
219	0x3c510abb	0.012758906
220	0x3d1e6444	0.03866984
221	0xbc3cc189	-0.011520752
222	0xbd4fd33e	-0.050738566
223	0xbd717043	-0.05894495
224	0xbc7c8635	-0.015412857
225	0x3bf16517	0.007366787
226	0x3d3ad3d5	0.045612175
227	0x3d8b2812	0.06794752
228	0xbc853801	-0.016262056
229	0x3c551c74	0.013007272
230	0x3d73c8ec	0.059517786
231	0xbcb07658	-0.021540806
232	0xbc133913	-0.0089857755
233	0x3d52d73d	0.0514748
234	0xbc2903c7	-0.010315842
235	0x3d7e7206	0.06212046
236	0x3caf6b05	0.021413336
237	0xbc5e083e	-0.01355177
238	0xbc189907	-0.009313828
239	0xbce6c577	-0.02817033
240	0xbd35810e	-0.04431253
241	0xbca424c0	-0.020037055
242	0x3db1562e	0.086590156
243	0xbb83e338	-0.0040248893
244	0x3cebd82d	0.028789604
245	0xbd6acaad	-0.057322193
246	0xbd523e7b	-0.051329117
247	0xbbec957d	-0.007219969
248	0xbd398c21	-0.045299653
249	0xbd103423	-0.03520597
250	0x3d5787bc	0.05261968
251	0xbd0a978b	-0.03383593
252	0x3c0ff310	0.008785978
253	0xbbc32f1d	-0.005956544
254	0xbd29e518	-0.041478246
255	0xbad4a36c	-0.001622302

network.8.bias f4 [32]
0	0xb69e1400	-4.7110952e-06
1	0x38152232	3.5556215e-05
2	0x37ff268c	3.0416319e-05
3	0x37206162	9.559417e-06
4	0xb608306e	-2.029377e-06
5	0xb74fcc35	-1.2385707e-05
6	0x37a38874	1.9494655e-05
7	0x3818fcf0	3.647519e-05
8	0xb78550c7	-1.589245e-05
9	0x374b500e	1.2118382e-05
10	0x36e28ea8	6.7519322e-06
11	0x37e90a19	2.7780467e-05
12	0x36da4a0a	6.5055256e-06
13	0xb79c3548	-1.862146e-05
14	0xb621e930	-2.4126603e-06
15	0x368c64f2	4.1840767e-06
16	0xb7673a94	-1.3782312e-05
17	0x38c061e4	9.173507e-05
18	0xb71dff46	-9.417365e-06
19	0xb7a43d87	-1.9578974e-05
20	0xb7ce0650	-2.4560053e-05
21	0xb7c28e5a	-2.319289e-05
22	0xb54adace	-7.5569267e-07
23	0x373865fe	1.0991002e-05
24	0xb587d528	-1.012032e-06
25	0x37c4a1cf	2.3440369e-05
26	0xb7581914	-1.2880442e-05
27	0x38440cca	4.6741952e-05
28	0xb8568752	-5.1147603e-05
29	0xb7766e24	-1.4688387e-05
30	0x37e9f07e	2.7887752e-05
31	0x377f9d88	1.52358625e-05

network.9.weight f4 [32]
0	0x3f9a2e49	1.2045375
1	0x3fbab2dc	1.4585834
2	0x3fb71fba	1.4306557
3	0x3fbaa136	1.4580448
4	0x3f9e5c0a	1.2371838
5	0x3fa1af40	1.2631607
6	0x3fc47a7f	1.5349883
7	0x3fab4446	1.338021
8	0x3fba8719	1.4572479
9	0x3fc1bf2d	1.5136467
10	0x3fb1567a	1.3854516
11	0x3fa5b12f	1.2944697
12	0x3faa4712	1.3302939
13	0x3fbca48e	1.4737718
14	0x3fb3d777	1.405013
15	0x3fcaaf50	1.5834751
16	0x3fa84b47	1.3147973
17	0x3fbf26a4	1.4933667
18	0x3fa313e9	1.2740451
19	0x3fb73b92	1.4315054
20	0x3fb8e999	1.4446288
21	0x3fa9be1c	1.3261142
22	0x3fc036ca	1.501672
23	0x3fa7c03a	1.3105538
24	0x3fa2336a	1.267194
25	0x3fbb3423	1.4625286
26	0x3fa5359c	1.2906985
27	0x3fb64d21	1.4242288
28	0x3fb29d17	1.395419
29	0x3fb26217	1.3936185
30	0x3fb56e5d	1.4174305
31	0x3faadf64	1.3349423

network.9.bias f4 [32]
0	0x3e73e800	0.2381897
1	0x3ec5b4bf	0.3861446
2	0x3ec8010d	0.39063302
3	0x3ec165c4	0.37772954
4	0x3ecc33c8	0.39883256
5	0x3e9a19fc	0.3009795
6	0x3ea9fcdf	0.33200738
7	0x3ec47ced	0.3837656
8	0x3ec3a345	0.38210502
9	0x3e8ad891	0.27118352
10	0x3ec29bce	0.38009495
11	0x3ed15c94	0.40890944
12	0x3ec0826c	0.37599504
13	0x3e9ffb74	0.3124653
14	0x3ef7d6ec	0.4840616
15	0x3ed2ad68	0.41147923
16	0x3eb48af2	0.35262257
17	0x3ee37761	0.44427016
18	0x3ea629c0	0.32453728
19	0x3ed0e451	0.40799192
20	0x3eebc995	0.46052232
21	0x3e928056	0.28613538
22	0x3ec15c2b	0.3776563
23	0x3e9f8523	0.31156263
24	0x3eab043e	0.33401674
25	0x3ed328b0	0.4124198
26	0x3ee1c135	0.44092718
27	0x3ec44e5d	0.38341036
28	0x3eb32e96	0.3499648
29	0x3eb7e19d	0.35914317
30	0x3ea5ca14	0.32380736
31	0x3ece029c	0.40236366

network.9.running_mean f4 [32]
0	0x3de85ce2	0.11345841
1	0xbd2a2f89	-0.04154924
2	0xbd9e7079	-0.07736296
3	0xbc94d38d	-0.018167282
4	0xbdea7063	-0.11447217
5	0xbe83f4a5	-0.25772586
6	0x3de81998	0.113330066
7	0x3d48466a	0.048895277
8	0xbe251fbf	-0.16125391
9	0x3d662bfe	0.056194298
10	0x3e27511b	0.16339533
11	0xbd0afe69	-0.03393403
12	0x3bb10981	0.0054027443
13	0xbd5d4961	-0.054025058
14	0x3daa967e	0.08329485
15	0xbe2a3d12	-0.16624859
16	0xbd4bd5d2	-0.04976446
17	0x3d73c980	0.059518337
18	0xbc9e3042	-0.01931012
19	0x3e03179c	0.12801975
20	0xbe6dfb24	-0.23240334
21	0xbe2796dc	-0.16366142
22	0x3c89ef5e	0.016837772
23	0xbc0b29d5	-0.00849386
24	0xbd473106	-0.048630737
25	0xbe1a5481	-0.15071298
26	0x3c366fcf	0.011135056
27	0xbcba3d3a	-0.022734273
28	0x3d6a629b	0.057222944
29	0xbdadcca1	-0.084862955
30	0x3d25fd7e	0.040524952
31	0xbdd6d7f5	-0.10490409

network.9.running_var f4 [32]
0	0x3d4a0d1b	0.049328905
1	0x3d4d5880	0.05013323
2	0x3d59de4c	0.053190514
3	0x3d1f170b	0.038840335
4	0x3d0f314c	0.034959123
5	0x3d4cfa19	0.0500432
6	0x3d7cbf6e	0.061706
7	0x3d4f384c	0.0505908
8	0x3d73b4d3	0.05949862
9	0x3d2ce4b1	0.042210285
10	0x3d4bf96e	0.04979842
11	0x3d2c489a	0.042061426
12	0x3d22d6ba	0.03975556
13	0x3d51e392	0.05124242
14	0x3d607ba6	0.05480542
15	0x3d20093f	0.039071318
16	0x3d1c37a9	0.03813902
17	0x3d3255f6	0.04353901
18	0x3d2fed75	0.042951066
19	0x3d2ae40f	0.0417214
20	0x3d4f6389	0.050632033
21	0x3d22cb60	0.039744735
22	0x3d4db3da	0.050220348
23	0x3d357e52	0.04430992
24	0x3d286a35	0.041116912
25	0x3d3e28cf	0.046425637
26	0x3d087b4c	0.03332071
27	0x3d2854b9	0.041096423
28	0x3d238129	0.0399181
29	0x3d4e739a	0.050403215
30	0x3d309f74	0.043120816
31	0x3d20393b	0.03911708

network.13.weight f4 [10, 32]
0	0xbe20a582	-0.15688136
1	0x3eac707d	0.33679572
2	0x3d7c44ef	0.061589178
3	0xbdd96213	-0.10614409
4	0x3f08e07f	0.53467554
5	0x3e589d9d	0.21153875
6	0xbcf3f8f3	-0.029781794
7	0xbeb020fa	-0.3440016
8	0x3e9c7610	0.30558825
9	0xbf107190	-0.5642328
10	0xbefac6aa	-0.48979694
11	0x3f049810	0.5179453
12	0xbe318fcf	-0.17340015
13	0xbe97ea3d	-0.29670897
14	0xbefadade	-0.48995107
15	0xbef006cb	-0.46880183
16	0x3ef4a884	0.47784817
17	0xbed9c889	-0.4253581
18	0xbeb0bf93	-0.3452116
19	0xbf19ac73	-0.6002876
20	0x3ca9a8db	0.0207104
21	0x3ea9aced	0.33139744
22	0xbeedd5e6	-0.46452254
23	0xbe84a173	-0.25904426
24	0xbe96331d	-0.2933587
25	0x3f0c3ea1	0.54783064
26	0x3ed4c441	0.4155598
27	0xbec7c1dd	-0.39015093
28	0xbed4ce1c	-0.415635
29	0xbef23942	-0.4730931
30	0xbeaa298f	-0.33234832
31	0x3f23833a	0.6387211
32	0xbeeb770a	-0.45989257
33	0xbeb83b83	-0.35982904
34	0x3f1b8802	0.60754406
35	0xbef2fce4	-0.47458565
36	0xbea38f46	-0.31945246
37	0xbebdbc85	-0.3705789
38	0xbebc414b	-0.36768565
39	0xbefe8cfa	-0.49716932
40	0x3dfe725e	0.124241576
41	0xbeacf7d1	-0.3378282
42	0x3e611ca9	0.21983589
43	0xbeec3c73	-0.4613987
44	0xbec26df9	-0.37974527
45	0xbecb4acc	-0.39705503
46	0x3f0f1c24	0.55902314
47	0xbe831d41	-0.25608256
48	0xbee355f8	-0.44401526
49	0x3e18f081	0.14935495
50	0x3ea658aa	0.3248952
51	0xbc85dae5	-0.016339729
52	0x3edc3688	0.43010354
53	0xbeaf52ad	-0.34242764
54	0x3e6cfa3c	0.23142332
55	0x3f28647d	0.6577833
56	0xbe8741b4	-0.26417315
57	0x3d65cbb5	0.056102473
58	0x3e9ee942	0.31037337
59	0xbec3d68a	-0.38249618
60	0x3df7da90	0.12102234
61	0xbe3a60ff	-0.18201064
62	0xbdc1e513	-0.094675206
63	0xbea24abd	-0.31697646
64	0x3d705e76	0.058683835
65	0x3e866575	0.2624928
66	0xbf045de2	-0.51705754
67	0xbe1a792b	-0.15085284
68	0x3ee48d5b	0.44639096
69	0xbeaa61f8	-0.3327787
70	0x3f51711b	0.8181321
71	0x3f185367	0.5950226
72	0x3cf3bb12	0.029752288
73	0xbf1acaf1	-0.60465914
74	0x3ee6f10c	0.4510578
75	0xbef4ef23	-0.47838697
76	0x3e2b43f1	0.16725136
77	0x3e9a2b4d	0.3011116
78	0x3f03cc67	0.5148377
79	0xbd5062da	-0.050875522
80	0x3e4d97ae	0.20077392
81	0xbed6e52e	-0.41971725
82	0xbd8d3ea4	-0.068967134
83	0x3f0aca7a	0.54215205
84	0xbee8703c	-0.45398128
85	0xbc0cb967	-0.008589125
86	0xbe989dc3	-0.29807863
87	0xbd4a54b0	-0.04939717
88	0xbeda882f	-0.42682025
89	0xbebb2764	-0.3655349
90	0x3e5df12b	0.2167403
91	0xbec2a639	-0.38017443
92	0xbedf61d5	-0.43629327
93	0xbef500fa	-0.47852308
94	0xbe931db2	-0.28733593
95	0xbe8b97df	-0.27264306
96	0xbe6dd842	-0.23227027
97	0xbe1566ce	-0.14589998
98	0xbeadf938	-0.339792
99	0x3f07e29a	0.5308014
100	0x3ec5c4ce	0.38626713
101	0x3e45990e	0.19296667
102	0xbf03c9f9	-0.5148006
103	0x3e1ae562	0.15126565
104	0xbeecbe3f	-0.46238896
105	0xbea8ada7	-0.32944986
106	0xbf09957c	-0.5374372
107	0xbef21bc7	-0.47286817
108	0x3eb6bb53	0.35689792
109	0xbe836687	-0.2566416
110	0x3e9faf5e	0.31188482
111	0x3f3b8e43	0.7326395
112	0xbef4fde6	-0.4784996
113	0xbf04e8a5	-0.5191749
114	0xbe8929d0	-0.26789713
115	0x3e254a44	0.16141611
116	0x3f2523e0	0.64507866
117	0xbe8fb2bf	-0.2806606
118	0xbed8ecc3	-0.42368135
119	0xbeec2b9a	-0.46127015
120	0x3cc12e06	0.023581516
121	0xbed622ca	-0.41823417
122	0x3cda385f	0.026638208
123	0x3f2a4b60	0.66521263
124	0x3ed57257	0.41688797
125	0xbee7c336	-0.45266122
126	0x3edff8e1	0.43744567
127	0xbeb8f4c8	-0.36124253
128	0xbeb87c78	-0.36032462
129	0x3ee32e75	0.4437138
130	0x3eb1b30d	0.34706917
131	0xbefd6621	-0.4949198
132	0xbe717868	-0.23581088
133	0xbeb1b468	-0.34707952
134	0x3e8d33cc	0.2757858
135	0xbe95c6dc	-0.2925328
136	0xbe5e129a	-0.21686783
137	0x3f17b071	0.59253603
138	0xbe457897	-0.19284283
139	0x3e2ccb58	0.16874444
140	0xbe97a297	-0.29616234
141	0xbef1f3d4	-0.4725634
142	0xbf0e5b8f	-0.5560846
143	0xbf13c0ba	-0.5771595
144	0x3f05ebd8	0.52312994
145	0x3e3963a9	0.18104424
146	0xbdd59f94	-0.10430828
147	0x3c98233c	0.018571489
148	0xbec0825f	-0.37599465
149	0xbea8e461	-0.3298674
150	0x3f07e61f	0.5308551
151	0xbe69288d	-0.22769375
152	0xbee8df0a	-0.45482665
153	0xbed9fa03	-0.42573556
154	0xbf04aecd	-0.51829225
155	0x3e75be7b	0.23998444
156	0x3f1bcf6b	0.6086337
157	0x3ee40888	0.4453776
158	0x3ec2a0b2	0.38013226
159	0xbec8526c	-0.39125383
160	0xbf003eb6	-0.5009569
161	0xbef329b9	-0.4749277
162	0xbe8100b9	-0.25195864
163	0xbed5ec7d	-0.4178199
164	0xbe5497bf	-0.20761012
165	0xbe93edf9	-0.28892496
166	0xbe7ad1ac	-0.24494046
167	0xbe4edfac	-0.20202512
168	0xbed055e8	-0.4069054
169	0x3b49f051	0.0030813406
170	0xbef23445	-0.47305503
171	0x3eaa5468	0.33267522
172	0x3f25f8d1	0.6483279
173	0x3ed1de8b	0.409901
174	0xbeaeff52	-0.3417917
175	0x3e8a4cd8	0.27011752
176	0xbea4b8a9	-0.32172135
177	0x3ec83a24	0.39106858
178	0x3f13390f	0.5750894
179	0xbefdfe86	-0.49608248
180	0x3f1b5c86	0.60688055
181	0xbe8d58e1	-0.27606872
182	0xbede4a4a	-0.43416053
183	0xbe29ca01	-0.16580965
184	0x3eb0c0df	0.3452215
185	0xbefebff7	-0.49755833
186	0xbe82fc99	-0.25583342
187	0x3eaa4d7b	0.33262238
188	0xbe842190	-0.25806856
189	0x3f110240	0.5664406
190	0xbecf9220	-0.40541172
191	0x3ee26a3f	0.44221684
192	0xbe03c719	-0.12868918
193	0xbf04c68d	-0.51865464
194	0x3efa56ef	0.4889445
195	0x3f17b7bc	0.5926473
196	0xbe5cc443	-0.21559243
197	0xbf070f0b	-0.5275733
198	0x3ef67486	0.48135775
199	0xbed96726	-0.4246151
200	0x3f3a930e	0.7288064
201	0x3dcf8d77	0.10134404
202	0xbef8f57c	-0.4862479
203	0x3e0f9b50	0.14024091
204	0xbef63b4c	-0.48092115
205	0x3f0c9920	0.5492115
206	0xbd853929	-0.06505043
207	0x3e1e251f	0.15443848
208	0x3b7b9fa9	0.0038394725
209	0xbef49adc	-0.47774398
210	0xbf095806	-0.5364994
211	0xbe93ed3b	-0.2889193
212	0xbd6c50af	-0.057694133
213	0x3eab0b8f	0.33407256
214	0xbf0c38e7	-0.54774326
215	0xbda738b6	-0.08165114
216	0x3e6c5aa9	0.23081459
217	0xbee9e66e	-0.45683616
218	0xbecddb0b	-0.4020618
219	0xbeb81c8c	-0.3595928
220	0xbedb07b0	-0.42779303
221	0x3f0ceee3	0.5505201
222	0xbeda58b6	-0.42645806
223	0xbe83d570	-0.25748777
224	0x3eb6c5c7	0.35697767
225	0xbefebdc4	-0.49754155
226	0xbe8d3b5d	-0.27584353
227	0xbcb49448	-0.022043362
228	0xbe1d456e	-0.15358517
229	0x3db91467	0.090370946
230	0xbed1b401	-0.40957645
231	0xbeb87a38	-0.36030746
232	0xbf2e874f	-0.68175215
233	0x3f23ecf0	0.6403341
234	0x3e596beb	0.21232574
235	0xbf03cc87	-0.5148396
236	0x3e801518	0.25016093
237	0xbe9b9eab	-0.30394492
238	0xbda05b4c	-0.078299135
239	0xbf057631	-0.5213347
240	0xbedb139a	-0.42788392
241	0x3f2e139f	0.6799869
242	0xbed41a55	-0.4142634
243	0x3f05ba61	0.52237517
244	0xbeccafd6	-0.39977902
245	0x3ed8389a	0.42230684
246	0xbebeda18	-0.37275767
247	0xbe7a1da8	-0.24425375
248	0xbefa9e76	-0.4894902
249	0x3efc4825	0.49273792
250	0x3ee69126	0.45032614
251	0xbd9bb17d	-0.076022126
252	0x3f09513f	0.53639597
253	0xbe49b175	-0.196966
254	0xbedfcd9d	-0.43711558
255	0xbe7152a4	-0.23566681

network.13.bias f4 [10]
0	0x3c9919a4	0.018688984
1	0x3c5fdf1a	0.013664031
2	0x3d5c2829	0.053749237
3	0x3d926a2e	0.071491584
4	0xbce8a48a	-0.02839877
5	0xbbac856e	-0.0052649295
6	0xbc283b52	-0.010268049
7	0xbdec4775	-0.11537067
8	0x3d7bf450	0.06151229
9	0xbcd4473b	-0.025912872
