ann_models/cnn_model.onnx (onnx, 36090 bytes, 10 tensors)

trunk.0.weight f4 [16, 1, 5, 5]
0.04007752 0.047136355 -0.16030097 -0.15645222 0.1875046 -0.11471951 -0.0018980264 0.16144851
-0.10230944 -0.1662616 0.03688035 0.037869096 0.18606435 -0.04908781 -0.03390479 0.18912612
0.122177266 0.010149407 -0.029278684 0.0746845 0.037897803 0.15769053 0.13543606 0.09536705
-0.004624343 -0.06795938 0.014177251 0.024225403 -0.020581031 0.036703657 0.18424988 0.024019409
-0.026716948 0.18536599 0.13102837 -0.054869365 0.066786006 0.0794405 0.12405133 -0.14639986
0.082229786 0.14601879 0.07272835 -0.18095146 -0.107500456 -0.042886425 -0.1093201 -0.08793409
-0.06180823 0.17467903 -0.13440637 0.10481598 0.18093856 0.06300209 0.1759541 -0.05025251
-0.068119936 -0.09515331 0.036979534 0.022737479 -0.18309894 0.109853484 0.19098675 0.0395628
-0.10886896 0.10737677 -0.051310588 0.14364989 -0.19459474 -0.11311977 0.06462782 -0.19595681
0.08808148 0.0909004 0.13031232 -0.010750986 -0.074053384 0.12442436 -0.14368124 -0.18253739
-0.021918679 0.022088265 -0.17097755 -0.11824419 0.015261436 -0.13083687 0.002660656 0.13074556
0.15887402 0.13091968 0.03159497 0.10419779 0.101309896 -0.011552453 0.055117585 -0.14827509
-0.11003762 0.12538576 0.050104048 -0.16860437 -0.15277429 -0.037101388 -0.06536074 -0.0002676964
0.012847567 -0.07956772 0.04006202 0.18689843 -0.13470094 -0.18377636 -0.19458537 0.113197304
-0.1814395 0.15717636 -0.12552993 -0.102649115 0.023257662 0.043994166 7.43866e-06 -0.14928277
0.107417345 0.07504036 0.071005754 0.089910746 0.032694172 -0.032916736 0.02248304 0.020497156
0.031591773 -0.043240454 0.029422283 -0.16293938 -0.14496134 0.06911788 0.028738666 -0.06793179
-0.10593221 0.18032873 0.048292685 -0.13872881 -0.12377834 -0.08434832 -0.09541702 0.045541763
0.10065689 0.02700956 -0.132879 -0.059746552 0.023661708 0.16183434 0.15129896 0.0500093
-0.05006213 -0.13690035 -0.056335878 0.13749711 0.021407628 -0.09357216 0.035385825 0.17150135
0.11326277 0.1347981 -0.083706856 -0.15049139 -0.024743939 0.18476005 0.07396247 -0.12186422
0.027507162 -0.19580284 -2.7132035e-05 -0.19721635 -0.19609573 -0.14783895 -0.1454335 0.14090829
-0.022288203 -0.0073473216 0.11777606 -0.043325998 -0.09822061 -0.092223525 0.031833243 -0.17753525
-0.11675348 -0.045434665 -0.0112618925 -0.10703218 0.10069668 -0.029538585 0.07759535 -0.036922958
-0.122046374 0.10971644 0.08299639 0.12204468 -0.13611269 0.07947319 0.07442465 0.13014205
-0.092363 0.17604823 -0.10374849 0.18509543 0.034178495 0.17007153 -0.1971077 0.16226232
-0.17901392 -0.09781289 0.13305624 0.1888506 -0.07749303 -0.007950521 0.02045834 -0.10521469
-0.15303205 0.10201748 0.08406146 0.030789305 0.15908216 -0.18976681 -0.17788608 0.10619085
0.16091017 -0.12022348 -0.04152274 0.077278785 -0.1870245 -0.011351967 -0.1385278 0.16463283
0.06895576 0.07489355 -0.07576571 -0.16722862 -0.1393452 -0.19306754 0.0005255461 -0.18777947
-0.023806645 0.03578117 -0.13068016 -0.17588091 0.18707661 0.1807616 0.015504218 -0.10107916
0.01363101 0.14402227 -0.12683168 0.14054494 -0.050798323 0.095136404 -0.06310878 -0.10678289
00000000: 5328 243d 0d12 413d f025 24be 0335 20be
00000010: 3501 403e 10f2 eabd 33c7 f8ba c252 253e
00000020: 9d87 d1bd 7b40 2abe da0f 173d a01c 1b3d
00000030: a787 3e3e 4d10 49bd c0df 0abd 47aa 413e
00000040: 1338 fa3d b349 263c dad9 efbc 30f4 983d
00000050: ba3a 1b3d a079 213e c0af 0a3e cd4f c33d
00000060: cd87 97bb 4a2e 8bbd b347 683c 5a74 c63c
00000070: 8d99 a8bc 9356 163d 00ac 3c3e 5ac4 c43c
00000080: 80dd dabc 95d0 3d3e 4d2c 063e b3be 60bd
00000090: 1ac7 883d b3b1 a23d a00e fe3d d8e9 15be
000000a0: 1768 a83d f385 153e 9af2 943d 574b 39be
000000b0: 3329 dcbd ada9 2fbd 37e3 dfbd ca16 b4bd
000000c0: a02a 7dbd 0fdf 323e d3a1 09be c3a9 d63d
000000d0: f547 393e 3d07 813d 502d 343e 93d5 4dbd
000000e0: 7782 8bbd bddf c2bd da77 173d f343 ba3c
000000f0: 4a7e 3bbe ddfa e03d 0892 433e 9a0c 223d
00000100: b0f6 debd 5ae8 db3d 0d2b 52bd f518 133e
00000110: d843 47be 57ab e7bd 975b 843d e7a8 48be
00000120: 1064 b43d fd29 ba3d 9870 053e e724 30bc
00000130: 4da9 97bd 33d2 fe3d 2d21 13be 15eb 3abe
00000140: cd8e b3bc 73f2 b43c bd14 2fbe 032a f2bd
00000150: 1a0b 7a3c 1afa 05be 675e 2e3b 2ae2 053e
00000160: dfaf 223e cf0f 063e ba69 013d a765 d53d
00000170: 907b cf3d 8046 3dbc fac2 613d 6dd5 17be
00000180: 675b e1bd 2065 003e e739 4d3d a0a6 2cbe
00000190: dd70 1cbe a0f7 17bd dadb 85bd 9a59 8cb9
000001a0: 9a7e 523c 67f4 a2bd 1318 243d 4d62 3f3e
000001b0: 0bef 09be df2f 3cbe 6341 47be fdd3 e73d
000001c0: 47cb 39be d7f2 203e eb8a 00be b339 d2bd
000001d0: da86 be3c 3a33 343d 9a99 f936 95dd 18be
000001e0: a0fd db3d c3ae 993d 776b 913d 2023 b83d
000001f0: 53ea 053d b3d3 06bd 5a2e b83c a7e9 a73c
00000200: 6066 013d e71c 31bd 0007 f13c 95d9 26be
00000210: bf70 14be ad8d 8d3d 5a6d eb3c d31f 8bbd
00000220: fdf2 d8bd 18a8 383e 8dce 453d ed0e 0ebe
00000230: 807f fdbd d0be acbd 006a c3bd 008a 3a3d
00000240: 3325 ce3d 2743 dd3c 6f11 08be cdb8 74bd
00000250: 33d6 c13c e7b7 253e 1dee 1a3e 8dd6 4c3d
00000260: f30d 4dbd 9b2f 0cbe 73c0 66bd 0bcc 0c3e
00000270: 0d5f af3c c3a2 bfbd baf0 103d 0d9e 2f3e
00000280: 50f6 e73d 8308 0a3e 806e abbd 6a1a 1abe
00000290: cdb3 cabc bd31 3d3e a379 973d f393 f9bd
000002a0: b356 e13c 8a80 48be 9a99 e3b7 15f3 49be
000002b0: 52cd 48be 1863 17be 85ec 14be 434a 103e
000002c0: c095 b6bc cdc1 f0bb 9334 f13d 9a76 31bd
000002d0: e327 c9bd b0df bcbd 9363 023d cdcb 35be
000002e0: 731c efbd b319 3abd cd83 38bc b033 dbbd
000002f0: 103a ce3d e7fa f1bc 50ea 9e3d 873c 17bd
00000300: 73f3 f9bd 03b3 e03d 03fa a93d 90f2 f93d
00000310: 2061 0bbe d7c2 a23d f36b 983d f543 053e
00000320: d028 bdbd fd45 343e 177a d4bd a889 3d3e
00000330: c0fe 0b3d 3b27 2e3e 9ad6 49be 1828 263e
00000340: 6d4f 37be 2052 c8bd e53f 083e 0d62 413e
00000350: aab4 9ebd e742 02bc 4098 a73c cd7a d7bd
00000360: 6fb4 1cbe 8aee d03d 6a28 ac3d da39 fc3c
00000370: 6fe6 223e 3b52 42be c527 36be 977a d93d
00000380: a3c5 243e ba37 f6bd c013 2abd 5744 9e3d
00000390: 5a83 3fbe 9afd 39bc 3bda 0dbe 8295 283e
000003a0: ad38 8d3d ca61 993d 0d2b 9bbd fb3d 2bbe
000003b0: 82b0 0ebe 7fb3 45be cdc4 093a 4349 40be
000003c0: 2706 c3bc 478f 123d 05d1 05be 201a 34be
000003d0: 0391 3f3e 9219 393e 6705 7e3c 9702 cfbd
000003e0: 9a54 5f3c 937a 133e 2ae0 01be 03eb 0f3e
000003f0: e711 50bd e0d6 c23d 2d3f 81bd fdb0 dabd

trunk.0.bias f4 [16]
-0.1889693 0.019097352 0.0676538 -0.13777213 -0.09976306 0.073395826 -0.17497401 -0.12032795
0.15756245 0.13732234 0.096396804 -0.11550808 -0.1991122 -0.1905419 0.023617363 0.086829804
00000000: 2b81 41be 0d72 9c3c 138e 8a3d 2314 0dbe
00000010: 9350 ccbd 8d50 963d 632c 33be 806e f6bd
00000020: 0d58 213e 3a9e 0c3e b06b c53d 808f ecbd
00000030: 12e4 4bbe 6a1d 43be 3379 c13c d3d3 b13d

branch1.0.weight f4 [32, 16, 3, 3]
0.0673597 0.010177235 -0.031188022 0.025255114 0.0019350946 -0.06365891 -0.034473002 0.017712396
0.053442232 0.04688155 0.077338815 -0.016418934 0.0761161 -0.06625621 0.025942346 0.06850967
0.038852416 -0.041682296 -0.073028795 -0.05004978 0.07995807 -0.06155659 -0.04363098 0.0010809302
0.056661956 0.056541435 -0.008069834 -0.027427703 -0.081111476 0.012935708 -0.06519762 -0.04771779
0.04015913 -0.014363538 0.030729752 -0.07590207 0.042194586 0.022376299 0.057982724 -0.04562127
0.058418773 0.06547134 -0.045769524 -0.03612433 0.01061666 -0.02665179 0.08066639 0.02049627
-0.0070269704 0.0061574085 -0.0063861012 -0.04471951 -0.03008921 0.019846022 0.04118538 -0.011165838
0.069789164 -0.06873909 -0.012242606 -0.0060861707 -0.0089682145 0.06668107 -0.005926331 0.027498972
0.0036550662 -0.056904994 0.031260192 0.012496005 -0.004733622 -0.034391344 0.06684561 0.0086233225
0.020159563 -0.015101155 0.024224024 -0.07071683 0.0018870533 -0.07690424 0.060521305 -0.07860458
-0.07843232 0.030081978 0.08124842 0.08006112 0.06343561 0.039803 0.06316062 0.010965417
-0.01166908 -0.052259278 -0.069879934 0.0060338974 -0.07654833 0.058944624 0.019337257 -0.034173302
-0.048190795 0.08164632 -0.04570537 -0.028654447 -0.021338135 0.015057038 0.07933904 -0.04003493
0.07666432 -0.022199195 0.073544174 -0.06969616 -0.045178466 -0.035010975 0.007965049 0.027725648
0.035361104 -0.03322103 0.052021734 -0.031058412 0.06807913 0.03339526 -0.06158384 -0.028495193
-0.016100496 0.061061274 0.03807351 0.08147986 0.052181304 -0.0106235845 0.06470424 0.00038896006
-0.030991446 0.025585026 0.037479084 0.0737789 -0.022788435 -0.04073183 0.022806954 -0.018549543
-0.0068487725 0.08249295 -0.07958217 0.049099278 0.018172702 -0.005241126 0.012712717 -0.06583837
0.030445239 0.029029122 -0.076441616 0.061819047 0.07609051 -0.0034867427 0.004910519 -0.063352786
0.047976427 0.045328926 0.020988774 0.075809866 0.061196864 -0.05130623 0.049038768 -0.06157611
-0.0012440085 -0.009703785 -0.03490307 0.04375609 -0.06171765 -0.04592386 0.07666835 -0.05740338
-0.053248398 -0.051647894 -0.02327632 -0.012852073 0.017109137 -0.0530729 0.07604754 0.04677887
0.048268013 -0.046406597 0.08230464 -0.060971737 -0.035730414 -0.056538187 -0.01646337 0.02713878
0.017914763 -0.006003847 -0.07196596 -0.010024409 0.032655966 0.08106737 -0.018553158 -0.07262333
0.018683692 0.076169394 0.032729805 0.04105612 0.06571588 0.023677101 -0.02150168 0.046104014
-0.04775107 0.019938072 0.020803869 0.07940962 -0.0058496296 -0.02500565 0.02321313 0.07060446
0.08004844 0.07291491 0.029581398 0.03362304 0.060980152 -0.047169648 0.063758716 0.07209103
-0.016532144 0.02382215 -0.074075215 -0.046724908 -0.038596254 0.014872919 -0.075143665 0.05543378
0.055470884 0.007855426 -0.0060905516 0.05950263 -0.038368873 -0.06257388 0.005670488 -0.02551344
-0.04905542 -0.011363149 0.07053886 0.059794925 0.050828397 -0.07086282 0.033878624 -0.03357377
-0.012548089 -0.036980867 0.00062301755 -0.046382777 0.062286865 0.058836102 -0.04578842 0.072386295
0.021581262 0.00013066332 -0.07810127 0.032444768 0.06802793 -0.03994175 -0.00020911297 -0.06442123
00000000: e2f3 893d 6bbe 263c 067e ffbc d0e3 ce3c
00000010: 00a3 fd3a 9a5f 82bd 9033 0dbd 9619 913c
00000020: 3ee6 5a3d de06 403d d063 9e3d 0081 86bc
00000030: c2e2 9b3d 56b1 87bd 0b85 d43c cc4e 8c3d
00000040: b623 1f3d 0ebb 2abd 1f90 95bd 0001 4dbd
00000050: 0ec1 a33d c322 7cbd 66b6 32bd 00ae 8d3a
00000060: 5e16 683d fe97 673d 5637 04bc 10b0 e0bc
00000070: c61d a6bd 4bf0 533c 5486 85bd bb73 43bd
00000080: e67d 243d 0b55 6bbc f6bc fb3c 8b72 9bbd
00000090: 3bd4 2c3d 804e b73c 4b7f 6d3d 5edd 3abd
000000a0: 8648 6f3d d715 863d d378 3bbd 1bf7 13bd
000000b0: 80f1 2d3c db54 dabc 6c34 a53d cbe7 a73c
000000c0: 8042 e6bb 16c4 c93b 8042 d1bb ce2b 37bd
000000d0: a67d f6bc 2094 a23c 00b2 283d ebf0 36bc
000000e0: 9fed 8e3d 14c7 8cbd 3695 48bc 806e c7bb
000000f0: 6bef 12bc 1690 883d ab31 c2bb 8645 e13c
00000100: d689 6f3b 3615 69bd b00a 003d 0bbc 4c3c
00000110: 801c 9bbb f0dd 0cbd 5ae6 883d d648 0d3c
00000120: ab25 a53c d66a 77bc 7671 c63c fcd3 90bd
00000130: 0057 f73a f87f 9dbd 30e5 773d 70fb a0bd
00000140: 20a1 a0bd 7b6e f63c 9265 a63d 16f7 a33d
00000150: 87ea 813d 7808 233d 5b5a 813d 4ba8 333c
00000160: ab2f 3fbc d30d 56bd 361d 8fbd 00b8 c53b
00000170: 5fc5 9cbd eb6f 713d 2b69 9e3c 4ef9 0bbd
00000180: b663 45bd 3036 a73d 8e35 3bbd bbbc eabc
00000190: 50cd aebc cbb1 763c 827c a23d abfb 23bd
000001a0: 2f02 9d3d 16db b5bc 549e 963d dcbc 8ebd
000001b0: 0e0d 39bd ab67 0fbd d67f 023c e620 e33c
000001c0: ced6 103d c612 08bd be14 553d 366e febc
000001d0: 126d 8b3d 78c9 083d 563f 7cbd c06e e9bc
000001e0: 30e5 83bc 631b 7a3d f8f2 1b3d eade a63d
000001f0: 10bc 553d 8b0e 2ebc a883 843d 56ed cb39
00000200: c6e1 fdbc b097 d13c ab83 193d 6419 973d
00000210: d0ae babc 6bd6 26bd a6d5 ba3c 36f5 97bc
00000220: ab6b e0bb 10f2 a83d fafb a2bd 531c 493d
00000230: ebde 943c c0bd abbb 0049 503c 44d6 86bd
00000240: 4b68 f93c 7bce ed3c 6c8d 9cbd f835 7d3d
00000250: 57d5 9b3d d681 64bb 6be8 a03b 1bbf 81bd
00000260: ee82 443d d3aa 393d a6f0 ab3c 3442 9b3d
00000270: 90a9 7a3d 7b26 52bd e0dc 483d 3b37 7cbd
00000280: 000e a3ba a0fc 1ebc 86f6 0ebd 9639 333d
00000290: a6cb 7cbd a81a 3cbd 4c04 9d3d ce1f 6bbd
000002a0: fe1a 5abd be8c 53bd fbad bebc 8091 52bc
000002b0: 7628 8c3c f862 59bd d0be 9b3d 339b 3f3d
000002c0: aeb4 453d d814 3ebd 568f a83d 80bd 79bd
000002d0: 0e5a 12bd 9694 67bd 30de 86bc 2652 de3c
000002e0: fbc1 923c ebbb c4bb e462 93bd 6b3d 24bc
000002f0: 43c2 053d a606 a63d cbfc 97bc 8abb 94bd
00000300: 8b0e 993c b3fe 9b3d b00f 063d 762a 283d
00000310: 0c96 863d 7bf6 c13c 4b24 b0bc 90d7 3c3d
00000320: a096 43bd 2b55 a33c e06c aa3c 83a1 a23d
00000330: 40ae bfbb a6d8 ccbc 7629 be3c 1299 903d
00000340: 70f0 a33d 6a54 953d b054 f23c 50b8 093d
00000350: 53c6 793d f634 41bd ee93 823d 76a4 933d
00000360: 6b6e 87bc ab26 c33c bfb4 97bd 9e62 3fbd
00000370: 1b17 1ebd 8bad 733c ece4 99bd 880e 633d
00000380: 7035 633d 0bb4 003c 4093 c7bb 08b9 733d
00000390: ae28 1dbd bc26 80bd 80cf b93b 9001 d1bc
000003a0: 56ee 48bd 802c 3abc ae76 903d 86eb 743d
000003b0: 7031 503d 8720 91bd 50c4 0a3d a684 09bd
000003c0: 8096 4dbc 4079 17bd 0052 233a defb 3dbd
000003d0: 8320 7f3d 20fe 703d a38c 3bbd 443f 943d
000003e0: 30cb b03c ab02 0939 8ff3 9fbd cee4 043d
000003f0: 3a52 8b3d f699 23bd 5645 5bb9 47ef 83bd

branch1.0.bias f4 [32]
0.051333647 -0.033884685 -0.053392917 0.024712574 0.0042791963 0.058121473 0.05360201 0.06686025
-0.08126268 -0.01801463 0.041833024 0.021864474 0.021102559 0.07808094 0.025821518 0.07002076
0.014045745 0.020106375 0.07181242 0.075790815 -0.01451852 -0.0809893 -0.028382173 -0.070572674
0.08316945 -0.04400445 -0.080308646 -0.07241523 0.014461528 -0.058713824 0.010458162 -0.078860246
00000000: 3b43 523d abca 0abd 88b2 5abd 0672 ca3c
00000010: 8038 8c3b c810 6e3d c88d 5b3d 07ee 883d
00000020: 0c6d a6bd 6b93 93bc 1b59 2b3d 201d b33c
00000030: 46df ac3c e6e8 9f3d a687 d33c 0b67 8f3d
00000040: 2020 663c 20b6 a43c 6412 933d 3738 9b3d
00000050: 16df 6dbc b8dd a5bd bb81 e8bc 6888 90bd
00000060: bf54 aa3d 033e 34bd dc78 a4bd 704e 94bd
00000070: 0bf0 6c3c e87d 70bd b658 2b3c 7b81 a1bd

branch2.0.weight f4 [8, 16, 1, 1]
0.21866187 -0.16821459 0.040977925 0.08268869 -0.09025094 -0.1133199 0.17549318 -0.21380967
0.119427025 0.14460891 0.13419777 -0.13630903 0.00606972 0.14465335 0.2243833 -0.17633712
-0.117506206 -0.14955029 -0.01191473 -0.15292883 -0.24920473 -0.07465783 0.03153166 -0.050617754
0.005697906 0.1776427 -0.1677081 -0.00014477968 -0.07020602 0.1664859 0.01325351 0.19732633
0.19365048 -0.027234942 -0.011649698 0.24921486 0.19804546 -0.21005616 -0.011673719 0.12678403
-0.16879123 0.036675632 0.008780003 0.015396446 -0.11715186 0.20436192 0.17598814 0.08086842
-0.04561308 -0.18977991 -0.14756647 0.07722518 -0.014675021 0.03785509 -0.10865435 -0.10414693
0.15367165 0.20637679 -0.2345683 0.20899203 0.056486875 0.08447155 0.05662003 -0.089360684
0.1911619 -0.15709674 -0.0073093474 -0.15780568 0.033468068 0.15613937 0.13662517 0.24066532
-0.18599606 0.119164854 0.18004161 0.16779524 0.005132079 -0.072469175 0.12897795 0.064729035
-0.24324855 -0.07219246 -0.017304689 -0.17188081 -0.11232492 -0.08126694 0.08057448 -0.11717847
-0.09468192 0.21907434 0.018335998 0.13907024 0.078746885 0.0050846636 0.05581543 -0.21476555
-0.03596309 -0.07940084 0.15428784 -0.111570776 -0.24113148 -0.19976047 -0.16648912 -0.15012562
0.2382727 -0.16847569 0.18156055 -0.24336737 -0.09241545 -0.054213196 -0.15979823 0.19216532
-0.11753693 0.19478911 0.10104638 -0.18916336 0.04596597 0.028577834 -0.06011647 -0.16710934
0.09205684 0.07905695 0.17145965 -0.22920895 -0.18921867 0.11634013 0.033064604 -0.20098543
00000000: e6e8 5f3e 7240 2cbe 78d8 273d b058 a93d
00000010: 7cd5 b8bd 4414 e8bd 7cb4 333e ecf0 5abe
00000020: 2896 f43d 5c14 143e 246b 093e 9894 0bbe
00000030: 80e4 c63b 0220 143e bcc4 653e b891 34be
00000040: 18a7 f0bd b623 19be 0036 43bc 6099 1cbe
00000050: 862f 7fbe 34e6 98bd 5827 013d 9054 4fbd
00000060: 80b5 ba3b f8e7 353e acbb 2bbe 00d0 17b9
00000070: 2cc8 8fbd 487b 2a3e 4025 593c ea0f 4a3e
00000080: 504c 463e d01b dfbc 60de 3ebc 2e32 7f3e
00000090: 6ecc 4a3e f618 57be 2043 3fbc acd3 013e
000000a0: 9cd7 2cbe 3039 163d 00da 0f3c 6041 7c3c
000000b0: 50ed efbd 4044 513e 3c36 343e 589e a53d
000000c0: c8d4 3abd aa55 42be aa1b 17be 3c28 9e3d
000000d0: 806f 70bc f00d 1b3d 2c86 debd fc4a d5bd
000000e0: 1a5c 1d3e 7054 533e ac32 70be 0202 563e
000000f0: c85e 673d 6cff ac3d 68ea 673d bc02 b7bd
00000100: f2bf 433e f8dd 20be 4083 efbb d097 21be
00000110: d015 093d 00e3 1f3e 78e7 0b3e f870 763e
00000120: c075 3ebe b40c f43d d45c 383e 84d2 2b3e
00000130: 002b a83b b86a 94bd cc12 043e a890 843d
00000140: 2616 79be a4d9 93bd 90c2 8dbc 8601 30be
00000150: 9c0a e6bd 486f a6bd 3c04 a53d 44fb efbd
00000160: 98e8 c1bd 0655 603e 6035 963c 6e68 0e3e
00000170: 0c46 a13d 409d a63b b89e 643d 80eb 5bbe
00000180: 084e 13bd e89c a2bd a2fd 1d3e 387f e4bd
00000190: 2ceb 76be 028e 4cbe 207c 2abe 88ba 19be
000001a0: c2fd 733e e484 2cbe 02eb 393e 4c35 79be
000001b0: 5044 bdbd a80e 5ebd 26a2 23be fcc6 443e
000001c0: 34b7 f0bd cc76 473e 68f1 ce3d 0ab4 41be
000001d0: d046 3c3d 101c ea3c b03c 76bd b61e 2bbe
000001e0: 4c88 bc3d 9ce8 a13d 1e93 2f3e c0b5 6abe
000001f0: 8ac2 41be bc43 ee3d c06e 073d 20cf 4dbe

branch2.0.bias f4 [8]
0.088825405 0.05977291 0.23551509 -0.13035887 0.11102545 -0.039055467 0.09057301 0.018273622
00000000: 18ea b53d 70d4 743d de2a 713e cc7c 05be
00000010: 5061 e33d a0f8 1fbd 587e b93d 90b2 953c

head.0.weight f4 [8, 40, 1, 1]
-0.15632755 -0.13398151 0.08523685 -0.014708897 0.05892154 -0.08783852 -0.1377685 -0.05866007
0.03520738 -0.013825669 0.10846631 0.084323026 -0.08949091 0.15387474 -0.09661055 -0.08727218
-0.08400618 -0.14605683 -0.06885327 0.104766846 0.04311348 -0.014053361 -0.056381874 0.05607085
0.15715839 -0.0010592372 0.0545423 -0.14707623 0.09128097 -0.0033870824 -0.04602345 -0.13273552
0.0053847935 -0.09239202 0.1079963 0.101057395 -0.084192954 -0.15403844 0.1271521 0.10616866
-0.12525906 0.14904618 0.11838581 0.030671436 -0.14383475 0.057016637 -0.12142679 -0.06736829
0.07028703 -0.12588541 -0.13071875 -0.12601773 -0.0028256378 -0.08815646 0.07639717 0.038500655
0.047056165 -0.024490645 0.030932603 -0.15051691 -0.032694723 -0.063948475 -0.08663951 -0.08112918
-0.108224384 0.11081404 0.023975475 0.14753397 -0.12579682 0.0982364 -0.03766694 0.09378412
0.12625429 -0.101324484 0.0044444157 -0.14725475 -0.08131135 0.107805155 -0.14527456 -0.04051316
-0.020554464 -0.05591239 -0.02217818 0.05351441 -0.14371736 0.04298914 0.14536299 0.045200046
-0.008131701 0.036305014 0.01986907 -0.13663913 0.034310997 0.024465859 -0.03994165 -0.0005396932
0.056687314 -0.03181244 0.1520287 0.025090542 0.016543379 0.0456101 0.12660609 -0.000755284
0.04243936 0.124282524 -0.022925416 0.023900231 0.025516916 -0.074457265 -0.07466847 -0.11135856
0.1495875 -0.021070804 0.09233002 -0.015799329 0.102855444 -0.14927141 -0.011316198 0.11854747
0.023523428 -0.08517777 -0.14640392 0.1514568 -0.0134098865 -0.076607846 -0.065419234 -0.08588901
0.045394223 -0.07995774 -0.13600667 0.060464546 0.105826385 -0.0037363288 0.0055320016 -0.105019644
0.09262878 -0.09365412 -0.030284286 0.07109627 0.13372459 -0.07439942 -0.14208049 0.13297375
0.03622142 0.05099619 -0.086361185 0.05200797 -0.100152306 0.07131334 0.035450812 0.010359421
0.13957788 0.1564602 0.10977965 0.014178987 -0.09134266 0.10742089 -0.051196627 -0.07984333
0.06083526 0.09934983 0.123200215 -0.13532946 -0.035555687 0.1379924 -0.104512334 -0.03284463
0.067775145 -0.14177914 0.09947683 -0.14974119 0.14103398 0.11607881 0.031727865 -0.013298038
-0.13230321 -0.06928128 0.06745121 -0.08799587 0.14663507 0.04368418 0.020773204 0.13642086
0.06927268 0.08223111 0.069570795 -0.097490534 -0.011177264 -0.14648947 -0.14339173 0.1490797
0.039656565 0.06340203 -0.07785215 0.025251132 -0.11514789 0.02117108 0.1408391 -0.0061588883
-0.035934996 0.0008205003 0.019441245 0.0038053526 0.10715851 -0.021442689 0.06450856 0.12844083
0.13032284 -0.12894206 -0.15449558 -0.023625417 -0.13095737 -0.043621622 -0.085358724 -0.10625027
0.076369934 -0.01543915 0.028734682 0.116496004 0.09072022 0.108525306 -0.05461238 -0.049695842
0.13880037 -0.10313196 -0.13626991 -0.14990678 -0.15377846 -0.060532343 0.13600032 -0.073843874
0.11588834 -0.12374875 -0.13521062 -0.0048227645 -0.09476533 0.015510982 -0.14290361 -0.05132774
0.09862034 0.08343477 0.13683246 -0.05244993 -0.010697416 0.14813168 -0.08523197 -0.08317522
-0.13272308 -0.15519632 0.11934852 0.02074001 -0.10681451 0.08538816 0.115481496 0.11894516
00000000: 5414 20be 7332 09be a890 ae3d 96fd 70bc
00000010: b657 713d afe4 b3bd 3013 0dbe 8b45 70bd
00000020: 9d35 103d 0f85 62bc 9623 de3d 8db1 ac3d
00000030: 0347 b7bd 5791 1d3e c1db c5bd c2bb b2bd
00000040: 6f0b acbd ec8f 15be f102 8dbd 0090 d63d
00000050: c397 303d 1140 66bc aef0 66bd 8caa 653d
00000060: 21ee 203e 1ad6 8aba bf67 5f3d 279b 16be
00000070: 84f1 ba3d d0f9 5dbb 1683 3cbd d2eb 07be
00000080: ec72 b03b 0738 bdbd 2a2d dd3d 2ef7 ce3d
00000090: 5b6d acbd 41bc 1dbe 2934 023e f46e d93d
000000a0: e943 00be 909f 183e 4274 f23d aa42 fb3c
000000b0: 6b49 13be 478a 693d 9cae f8bd 63f8 89bd
000000c0: a5f2 8f3d 1be8 00be 23db 05be cb0a 01be
000000d0: 562e 39bb 608b b4bd 1f76 9c3d ddb2 1d3d
000000e0: f7bd 403d 9ba0 c8bc 5f66 fd3c 1b21 1abe
000000f0: e7ea 05bd 6bf7 82bd 0e70 b1bd 0e27 a6bd
00000100: bfa4 ddbd 79f2 e23d 3768 c43c 2513 173e
00000110: e2d0 00be 2a30 c93d a648 1abd e411 c03d
00000120: ce48 013e 3683 cfbd 76a2 913b f3c9 16be
00000130: 9186 a6bd f3c8 dc3d dbc2 14be 21f1 25bd
00000140: d661 a8bc 6404 65bd 04af b5bc ed31 5b3d
00000150: a52a 13be 6115 303d 09da 143e af23 393d
00000160: d33a 05bc 91b4 143d 76c4 a23c 21eb 0bbe
00000170: b089 0c3d a06c c83c db99 23bd 337a 0dba
00000180: f530 683d c34d 02bd 69ad 1b3e ae8a cd3c
00000190: fb85 873c a8d1 3a3d 07a5 013e 40fe 45ba
000001a0: e5d4 2d3d d687 fe3d 15ce bbbc 6bca c33c
000001b0: da08 d13c 0d7d 98bd c8eb 98bd f50f e4bd
000001c0: 772d 193e ae9c acbc 8617 bd3d 986d 81bc
000001d0: e0a5 d23d 9bda 18be 9367 39bc 04c9 f23d
000001e0: 34b4 c03c af71 aebd e9ea 15be 7e17 1b3e
000001f0: 24b5 5bbc 93e4 9cbd 85fa 85bd 94e6 afbd
00000200: 4bef 393d e2c0 a3bd 5545 0bbe aca9 773d
00000210: 81bb d83d 32dd 74bb cb45 b53b 8a14 d7bd
00000220: 28b4 bd3d bbcd bfbd c016 f8bc ec9a 913d
00000230: 19ef 083e b95e 98bd 8c7d 11be 452a 083e
00000240: e95c 143d 62e1 503d 22de b0bd 4f06 553d
00000250: a71c cdbd ba0c 923d df34 113d 90ba 293c
00000260: 81ed 0e3e 1a37 203e 27d4 e03d fb4e 683c
00000270: dc11 bbbd 7cff db3d 8eb3 51bd e684 a3bd
00000280: 652e 793d ec77 cb3d 6550 fc3d ce93 0abe
00000290: d7a2 11bd e14d 0d3e 900a d6bd 1788 06bd
000002a0: b2cd 8a3d 8d2e 11be 82ba cb3d c155 19be
000002b0: 366b 103e baba ed3d 14f5 013d 04e0 59bc
000002c0: 7e7a 07be 58e3 8dbd dc23 8a3d 2e37 b4bd
000002d0: 8127 163e 2fee 323d 912c aa3c e9b1 0b3e
000002e0: d6de 8d3d c968 a83d 227b 8e3d 1ea9 c7bd
000002f0: d820 37bc 5601 16be 48d5 12be 59a8 183e
00000300: ec6e 223d ecd8 813d f370 9fbd 76db ce3c
00000310: a8d2 ebbd f96e ad3c 2038 103e 80d0 c9bb
00000320: 9330 13bd d816 573a 3f43 9f3c 3963 793b
00000330: ec75 db3d 94a8 afbc 101d 843d fe85 033e
00000340: 5a73 053e 6309 04be 1734 1ebe 178a c1bc
00000350: b019 06be 96ac 32bd 8ed0 aebd be99 d9bd
00000360: d767 9c3d 7df4 7cbc ff64 eb3c 7595 ee3d
00000370: 86cb b93d 8442 de3d 3bb1 5fbd de8d 4bbd
00000380: af21 0e3e d936 d3bd 578a 0bbe 2a81 19be
00000390: 1a78 1dbe c3f0 77bd ab43 0b3e 753b 97bd
000003a0: de56 ed3d fc6f fdbd a774 0abe 4808 9ebb
000003b0: 5314 c2bd c621 7e3c 5355 12be 093d 52bd
000003c0: 76f9 c93d d9df aa3d cf1d 0c3e bdd5 56bd
000003d0: 3744 2fbc d5af 173e 198e aebd c557 aabd
000003e0: 8fe8 07be c9eb 1ebe ff6c f43d f4e6 a93c
000003f0: 91c1 dabd fddf ae3d 9081 ec3d 8599 f33d

head.0.bias f4 [8]
-0.06391452 -0.0822997 -0.026535723 0.042924263 0.098335996 0.072844125 -0.1370205 0.009757415
00000000: 9ee5 82bd bf8c a8bd 7261 d9bc 5ad1 2f3d
00000010: 6264 c93d 4d2f 953d 1a4f 0cbe 91dd 1f3c

classifier.1.weight f4 [10, 288]
0.054531194 0.008484315 0.036307886 0.016456062 -0.00088733167 -0.025037855 -0.030910028 -0.029086811
-0.024216877 -0.0021572514 -0.00876325 0.03125531 -0.015258079 0.004392109 0.0025536143 -0.017004525
0.013971329 0.032661553 0.025050871 0.029143134 0.01450828 0.020075774 0.027731769 0.047583252
-0.03745893 -0.02374387 0.01276229 0.021211743 -0.0070563587 0.03970849 0.0426931 -0.025890162
0.043107208 -0.057601184 0.055135947 0.0051290467 0.05601373 -0.057778772 0.0058610253 -0.03859852
-0.02013577 0.015851907 0.010469853 -0.03006672 0.017162668 0.009749072 0.050750747 -0.042381052
-0.058117267 0.019984595 -0.03782639 -0.0153208785 -0.043439515 -0.04674675 0.0532869 -0.026653295
0.031178327 0.029266715 0.02177956 -0.0461472 -0.035384785 0.030600762 -0.04451933 0.041826576
0.040641807 0.005689396 -0.027561588 -0.050831437 -0.030129582 -0.03847756 -0.009783548 0.038066156
-0.022795923 0.0017940158 -0.03945108 -0.052418645 0.033966854 -0.030862374 -0.039621577 0.052517578
-0.0286768 -0.03265206 0.022386046 0.026438318 0.0012751177 0.014980177 0.054000005 0.014553511
-0.054710142 -0.023828184 0.039168198 -0.00050014263 -0.017209703 0.03865086 -0.02640694 -0.02976402
0.045059934 -0.015775446 -0.046334855 0.010577847 0.032120254 -0.029151157 -0.020643631 -0.05612524
0.02371342 0.044526327 -0.058442984 0.056161307 0.051595036 -0.007101252 0.034056067 0.043058477
-0.021545356 0.020700151 0.029095607 0.041575767 0.008188831 0.051906858 0.042385865 0.047817327
0.039116863 0.056287564 0.013143657 0.025409317 -0.04737586 -0.0432649 0.002482372 0.03213826
0.009702366 0.023759654 -0.058358192 -0.012127278 -0.011236638 -0.04277264 0.012065259 0.034251112
-0.052679453 -0.035751127 0.04140868 -0.056618165 0.021403778 0.050681528 -0.022889666 -0.0057630897
0.008699524 0.05420674 0.03145476 -0.044834834 0.042600077 -0.025127888 -0.020462949 -0.012020155
0.04815463 -0.049403004 0.04898942 0.036577668 -0.032069474 0.04296753 -0.054100413 -0.021765798
-0.001380822 0.017379014 -0.03136989 0.011432059 -0.000406113 0.035654828 -0.0112716975 0.030277524
-0.044185676 -0.015047064 0.030723577 -0.00918174 0.05193027 0.05751505 -0.0018772136 0.0042756996
-0.029343514 -0.037347153 -0.00835732 -0.024496121 0.043227024 0.0074957185 0.011486196 0.049487066
0.014503025 -0.048493203 -0.056097623 0.0060689915 -0.005985492 -0.0034352844 -0.008315784 -0.0014280406
0.038793575 0.05766789 0.025225943 -0.03499317 -0.04550957 -0.052689202 -0.055401992 0.031528786
0.032679506 0.029314911 0.0022330103 -0.013317779 0.0257324 0.043751583 -0.029065022 0.034810916
0.05138628 0.010715064 -0.023038838 0.028369542 0.0015087237 -0.021618636 0.02907454 0.014344202
-0.038175732 -0.009192354 0.03625958 0.05848922 0.058272332 -0.01623373 0.018777046 -0.057662446
0.0434907 -0.03497125 0.057149097 0.042475425 0.020153562 -0.029701313 -0.037660956 0.056120582
0.050224 -0.014668206 0.032806944 0.028966729 0.050184365 -0.028209245 -0.020687627 0.04252456
0.009163322 -0.0054504164 -0.0047759754 0.021663915 0.002851677 -0.010174432 -0.022298794 -0.032023266
0.0030042485 0.055253312 0.036776397 0.05557163 -0.03212482 0.05594247 0.027458651 0.03071248
00000000: 1a5c 5f3d cc01 0b3c 94b7 143d ddce 863c
00000010: d29b 68ba 301c cdbc 0737 fdbc 7747 eebc
00000020: 7962 c6bc ac60 0dbb bc93 0fbc 9105 003d
00000030: 06fd 79bc aeeb 8f3b 8a5a 273b 134d 8bbc
00000040: 00e8 643c 1fc8 053d 7c37 cd3c 95bd ee3c
00000050: 23b4 6d3c f375 a43c bc2d e33c a8e6 423d
00000060: 896e 19bd 8182 c2bc ed18 513c 40c4 ad3c
00000070: 0739 e7bb 5fa5 223d f6de 2e3d 9b17 d4bc
00000080: 2f91 303d 38ef 6bbd 3bd6 613d 9011 a83b
00000090: a76e 653d 6fa9 6cbd d80d c03b 7b19 1ebd
000000a0: c5f3 a4bc dcdb 813c bf89 2b3c 7b4e f6bc
000000b0: b998 8c3c 92ba 1f3c 04e0 4f3d c197 2dbd
000000c0: 5f0c 6ebd bcb6 a33c d8ef 1abd 6c04 7bbc
000000d0: a2ed 31bd 8579 3fbd 5d43 5a3d 0358 dabc
000000e0: b169 ff3c c0c0 ef3c 0c6b b23c d904 3dbd
000000f0: a3ef 10bd 73ae fa3c e759 36bd 5852 2b3d
00000100: 0678 263d 1d6e ba3b d7c8 e1bc a034 50bd
00000110: 50d2 f6bc a59a 1dbd 2d4b 20bc 42eb 1b3d
00000120: 84be babc 2e25 eb3a 7597 21bd efb4 56bd
00000130: d420 0b3d 17d3 fcbc 3c4a 22bd ac1c 573d
00000140: 9ceb eabc 2bbe 05bd f162 b73c 2c95 d83c
00000150: da21 a73a 6b6f 753c 1c2f 5d3d d971 6e3c
00000160: be17 60bd 5333 c3bc d56e 203d 011c 03ba
00000170: 5dfb 8cbc 5d50 1e3d 5e53 d8bc add3 f3bc
00000180: c490 383d 823b 81bc 9ec9 3dbd b54e 2d3c
00000190: 8790 033d 68ce eebc d51c a9bc 94e3 65bd
000001a0: a542 c23c 3d61 363d e961 6fbd 6609 663d
000001b0: 5155 533d 9fb1 e8bb 607e 0b3d 165e 303d
000001c0: e37f b0bc 5d93 a93c e959 ee3c 5a4b 2a3d
000001d0: 722a 063c 499c 543d cd9c 2d3d 1adc 433d
000001e0: 0139 203d ca8d 663d 7e58 573c 3327 d03c
000001f0: 310d 42bd 8936 31bd 4baf 223b 68a3 033d
00000200: acf6 1e3c 9ba3 c23c 0009 6fbd 7eb1 46bc
00000210: e019 38bc 5d32 2fbd 5dad 453c e54a 0c3d
00000220: 69c6 57bd c66f 12bd 269c 293d 73e8 67bd
00000230: fa56 af3c 6f97 4f3d 1c83 bbbc 4dd8 bcbb
00000240: 7388 0e3c e307 5e3d b5d6 003d bba4 37bd
00000250: 6b7d 2e3d 00d9 cdbc eaa1 a7bc 2ff0 44bc
00000260: ca3d 453d ce5a 4abd 21a9 483d 77d2 153d
00000270: 485b 03bd b9fe 2f3d 6598 5dbd 304e b2bc
00000280: b3fc b4ba 6f5e 8e3c b77d 00bd 884d 3b3c
00000290: 90eb d4b9 cc0a 123d edac 38bc 9208 f83c
000002a0: 0afc 34bd f687 76bc 03b0 fb3c 026f 16bc
000002b0: d6b4 543d e794 6b3d d60c f6ba 2b1b 8c3b
000002c0: cf61 f0bc 54f9 18bd 24ed 08bc 17ac c8bc
000002d0: d20e 313d a59e f53b 9930 3c3c f3b2 4a3d
000002e0: 199e 6d3c cfa0 46bd 9fc6 65bd 64de c63b
000002f0: f221 c4bb 8222 61bb ed3e 08bc 172d bbba
00000300: 03e6 1e3d 2a35 6c3d a3a6 ce3c 0055 0fbd
00000310: 3e68 3abd a2d0 57bd 33ed 62bd 5424 013d
00000320: f2da 053d d325 f03c b257 123b d032 5abc
00000330: c1cc d23c dc34 333d c519 eebc e495 0e3d
00000340: 6c7a 523d 3c8e 2f3c f2bb bcbc 3e67 e83c
00000350: 5ec0 c53a 9119 b1bc bb2d ee3c f203 6b3c
00000360: 285e 1cbd 879b 16bc ed84 143d 6492 6f3d
00000370: f8ae 6e3d 99fc 84bc 52d2 993c 752f 6cbd
00000380: 4e23 323d 033e 0fbd 2c15 6a3d b6fa 2d3d
00000390: 1519 a53c 2b50 f3bc 6042 1abd b2de 653d
000003a0: aeb7 4d3d ea52 70bc 9360 063d a24b ed3c
000003b0: 1f8e 4d3d 1317 e7bc 1979 a9bc 3c2e 2e3d
000003c0: c221 163c 6899 b2bb c97f 9cbb 8678 b13c
000003d0: 33e3 3a3b a9b2 26bc f6ab b6bc d42a 03bd
000003e0: ede2 443b 4c51 623d d9a2 163d 149f 633d
000003f0: 5195 03bd ee23 653d f7f0 e03c bd98 fb3c

classifier.1.bias f4 [10]
0.014393016 0.02522682 0.031674493 0.057354927 0.030258115 0.046122175 0.052683063 0.01011223
0.055653602 0.058583256
00000000: afd0 6b3c 7aa8 ce3c 1dbd 013d 00ed 6a3d
00000010: dedf f73c 9bea 3c3d 32ca 573d c4ad 253c
00000020: 08f5 633d fff4 6f3d
